wav_resampled16kHz/train/mfcc_delta_delta/Fla_FlutePlayersRoscommonVol1_Tk6Tu1R1_DownTheBroom.npy (npy, 279248 bytes, 1 tensors)

array (column-major) f4 [3489, 20]
00000000: 2f3f 313f 2f3f 313f 2f3f 313f 2f3f 313f
00000010: 2f3f 313f 7907 043f 1bd9 033f bba9 e2bd
00000020: b8b4 f5be 899c 21bf 6710 50bf 1c4e 0bbf
00000030: d61b 42bf 44cd 1cbf f733 abbe 0157 7e40
00000040: 5bf4 0041 5c17 0841 b010 ca40 4ff8 2a40
00000050: 5aae f6bf 109a b3c0 e187 cac0 d43a 21c0
00000060: 2312 b8bf da0a 04c0 d9fe 17c0 f34b 20c0
00000070: 8168 1ac0 2daa f7bf c9ab 85bf d40b 4ebf
00000080: 7909 1fbf 3d9d 92be 84b2 b9bf 3509 89bf
00000090: 1dd7 c93e c5df c83f b530 1a40 c8a8 0140
000000a0: dd15 ce3f aca8 823e a227 febf 09a3 dfbf
000000b0: 34de 41bf 938b 9bbd 087c 3a3f 2b14 7d3f
000000c0: 20f0 a03f 7934 8c3f a54c 113f 90f4 823f
000000d0: 312b 953f a0bc 373f 68bc d5be d7a1 1fc0
000000e0: 256c 51c0 4938 50c0 2536 41c0 72a6 b4bf
000000f0: de55 ab3e 34ad 1240 1d2d 2540 aadd 0f40
00000100: 3bbd 1340 8254 b73f e776 c5bd 36c1 90bf
00000110: 2773 eabf 4a68 bebf 42bf c4bf 4c33 f2bd
00000120: c25b a73f a28b 0940 7ff2 fe3f 8280 373f
00000130: 7a95 20bf 0d67 a0bf b0e4 cfbf 8f36 a9be
00000140: 9a8c 903f 8fe7 ff3f 8dbe 0f40 2550 d13f
00000150: 8244 663e aec5 fabf 4823 87c0 239f 8fc0
00000160: 7bb2 81c0 a825 13c0 e23c ba3d e305 f03f
00000170: 5190 e53f 53c7 eb3f d167 393f 0b8c 103e
00000180: 41c4 c83e 598d f73e dc37 813f c959 043f
00000190: 2b81 2cbf 69bc 51bf 75bb a9bf bdf2 4cbf
000001a0: 96e3 993e df15 2e3f ea69 2d40 3b19 a340
000001b0: e5fb cc40 055d dc40 0936 c040 f8fa 2340
000001c0: 99c0 1dc0 9439 dec0 ddf5 08c1 ccbb e8c0
000001d0: 4f53 b9c0 fa2f 56c0 abd2 34bf dc45 123f
000001e0: 827e d13f d02d c93f 7151 2d40 7549 4740
000001f0: b078 1140 f831 dc3f 509e 0040 2731 ba3f
00000200: de21 0a3f 831c 9cbf 59c5 0ac0 8183 5fc0
00000210: 23e7 69c0 3b9a 28c0 c1fb 28be 2100 e73f
00000220: c9cf c53f 8ef8 c33f c21a 903f 6b8c be3e
00000230: 534d 9abe 41fa afbf 6b57 ddbf 6177 1fc0
00000240: fc1b 4dc0 42fa 60bf 8321 913f de03 1740
00000250: cd32 4540 e038 4940 3edb 7240 3314 6740
00000260: 89df 4040 b9c9 e83f 503f 0fbf 79c8 57c0
00000270: 01ac 9bc0 5c3c 9ec0 7b26 29c0 7795 943e
00000280: 805a 3240 447b 7540 43aa 3b40 f9b1 283f
00000290: 25c6 b9bf 3687 53c0 e3c0 4ec0 54a7 10c0
000002a0: f6fb b0bf 8110 15be fe06 d9be 6f0d 24bf
000002b0: e6d2 49bf af76 dfbd 0bd0 d93f 7c94 3740
000002c0: b8d5 5c40 00b3 5c40 90f6 e03f f49c 413f
000002d0: 2a52 f0be 7e92 d6be db1e 27bf 2321 56bf
000002e0: f07b 9bbf f491 ccbf 61ac cabf d0c8 90bf
000002f0: c79e a8bf 6099 89bf 746d 05bf c388 893f
00000300: 4470 a93f 619e 8e3f 3de0 0e3f c1bc f0be
00000310: 7b08 7cbf d8b3 7cbf e368 afbe c4cb f83d
00000320: 071d a2be af55 eebe 6e7b bfbf eac8 1ebe
00000330: 566b a03f bda5 1340 eabf 4b40 eec9 2840
00000340: 4636 bc3f 52d7 1dbe fc08 05c0 f638 cdbf
00000350: f653 f3bf 38e7 4fbf 0468 a73e d0cf 913f
00000360: 5788 eb3f dcc4 e53f b0a3 253f 1d4e 39bf
00000370: cbf6 f5bf c70e 18c0 6521 26c0 27e9 04c0
00000380: cf43 a8bf dee9 70bf 2927 96bf b5eb 34bf
00000390: 6488 5c3f dca9 983f 4497 0f40 7f34 5c40
000003a0: 6870 7a40 51b4 2040 bcc2 943e f3cf 03c0
000003b0: 503d 4dc0 7ca5 99c0 3d43 62c0 0b8a fdbf
000003c0: 5bfb c53e cbb1 4b40 f349 c040 b24e e240
000003d0: 9af9 bc40 7eb2 0e40 ae1a b4bf 6ebd a1c0
000003e0: 93b6 bdc0 afc5 afc0 e9d3 46c0 b748 c0bf
000003f0: 2fcf f9be 3f00 f83e 9c26 c73f 9711 d53f
0.69237036 0.69237036 0.69237036 0.69237036 0.69237036 0.515739 0.5150315 -0.1106753
-0.4798944 -0.6312948 -0.8127503 -0.5441606 -0.75823724 -0.6125071 -0.33438084 3.9740603
8.059657 8.505703 6.314537 2.6714056 -1.9271958 -5.6125565 -6.329087 -2.5192156
-1.4380535 -2.0631623 -2.3749297 -2.5046356 -2.4126284 -1.9348809 -1.044305 -0.804868
-0.6212383 -0.28635588 -1.4507604 -1.0705935 0.3942193 1.5693289 2.4092228 2.0259266
1.6100422 0.2551931 -1.9855845 -1.7471629 -0.7572968 -0.07594981 0.72845507 0.988589
1.257328 1.0953513 0.56757575 1.0230885 1.1653806 0.71772194 -0.41745305 -2.494253
-3.2722256 -3.2534354 -3.0189297 -1.4113295 0.3346395 2.2918215 2.5808785 2.2479043
2.3084247 1.4322665 -0.096418194 -1.1308963 -1.8316392 -1.4875576 -1.5370867 -0.1182619
1.3074877 2.1491475 1.9917754 0.7168046 -0.62728083 -1.2531449 -1.6241665 -0.33049437
1.1292908 1.9992541 2.2460053 1.6352583 0.22487071 -1.9591577 -4.223057 -4.488176
-4.053037 -2.2991734 0.09093644 1.8751796 1.7934667 1.8420204 0.72424036 0.14115922
0.3921223 0.48350027 1.0095172 0.516995 -0.67384595 -0.81928116 -1.3260332 -0.8005789
0.30056447 0.6800212 2.7095895 5.09683 6.405749 6.886355 6.006596 2.562193
-2.4648802 -6.9445286 -8.560025 -7.2729244 -5.7914195 -3.3466783 -0.70633954 0.57137847
1.6366732 1.5717106 2.7080958 3.1138585 2.2729912 1.7202749 2.0096626 1.454625
0.5395793 -1.2196201 -2.1682951 -3.4924014 -3.6547325 -2.6344135 -0.16502286 1.8046914
1.5454036 1.5310228 1.1258166 0.37216505 -0.3013712 -1.3748246 -1.7292303 -2.4916613
-3.204833 -0.87881863 1.1338352 2.359611 3.0812256 3.1440964 3.7946315 3.6106079
3.0136435 1.8186561 -0.5595598 -3.3716109 -4.8647466 -4.944868 -2.6429737 0.29020283
2.7867737 3.8356485 2.932267 0.65896565 -1.4513594 -3.3051276 -3.2305229 -2.260213
-1.3826892 -0.14557077 -0.42388147 -0.64083 -0.7883743 -0.10911309 1.7016615 2.8684378
3.4505444 3.4484253 1.7575245 0.75630116 -0.46937686 -0.4190864 -0.65281457 -0.8364431
-1.2147198 -1.5982041 -1.5833856 -1.1311283 -1.3173455 -1.0749931 -0.5212014 1.0744861
1.3237386 1.1142083 0.5581091 -0.47019008 -0.9845044 -0.9871192 -0.3425971 0.1214824
-0.3166277 -0.46549746 -1.4959543 -0.1550633 1.2532756 2.3069909 3.1835885 2.6373248
1.4704063 -0.1541417 -2.0786734 -1.6033008 -1.9009998 -0.81212187 0.32696545 1.1391544
1.8400983 1.7950702 0.6470289 -0.72384816 -1.921594 -2.375902 -2.5957882 -2.0767305
-1.3145694 -0.94106853 -1.1730701 -0.7067216 0.86145616 1.1926837 2.2436075 3.440704
3.9131107 2.5110056 0.2905482 -2.0595672 -3.2068672 -4.8014507 -3.535354 -1.9807752
0.38668332 3.1827266 6.009027 7.0721064 5.905469 2.2296443 -1.4070642 -5.0543737
-5.928537 -5.4928813 -3.106684 -1.5022191 -0.4879088 0.48437688 1.5558658 1.6645993
