wav_resampled16kHz/train/mfcc_delta_delta/Fla_FlutePlayersRoscommonVol1_Tk6Tu2R1_TheGatehouseMaid.npy (npy, 137008 bytes, 1 tensors)

array (column-major) f4 [1711, 20]
0	0xbf851a00	-1.039856
1	0xbf851a00	-1.039856
2	0xbf851a00	-1.039856
3	0xbf851a00	-1.039856
4	0xbf851a00	-1.039856
5	0xbfb84a6a	-1.4397709
6	0xbf0e1f4e	-0.5551652
7	0x3f7adb18	0.9799056
8	0x4021773e	2.522903
9	0x405133f6	3.2687964
10	0x40270395	2.6095936
11	0xbc10a3cf	-0.0088281175
12	0xc0693d7f	-3.6443784
13	0xc0c1b905	-6.0538354
14	0xc0aaf3ab	-5.3422446
15	0xc049a169	-3.1504767
16	0xbe7fd438	-0.24983299
17	0x400302fc	2.0470572
18	0x4078fc2f	3.890392
19	0x406d562d	3.7083848
20	0x3fecfa3e	1.8513868
21	0x3f49bbe8	0.7880235
22	0x3e040229	0.12891449
23	0xbf4e59f9	-0.8060604
24	0xbf92cc4a	-1.1468594
25	0xbf9ce8bd	-1.2258526
26	0xbecf96d8	-0.40544772
27	0xbf133223	-0.5749838
28	0xbf236725	-0.6382926
29	0x3ddb73c6	0.107154414
30	0x3e5d55ac	0.21614712
31	0x3f0a60bb	0.5405385
32	0x40581dd7	3.3768213
33	0x40bb7738	5.858303
34	0x40e40f31	7.1268544
35	0x40b7b0ef	5.7403483
36	0x402741ba	2.6133866
37	0xbfb532e6	-1.4156158
38	0xc0a9a7f4	-5.301752
39	0xc0f11a94	-7.5344944
40	0xc0b6b472	-5.709527
41	0xc06cd29e	-3.700355
42	0xbffd23e1	-1.9776574
43	0xbe9a547f	-0.3014259
44	0x3f18ab71	0.596366
45	0x3fd7dbfd	1.686401
46	0x4017974f	2.3686101
47	0x4004c9a5	2.0748074
48	0x3fd22cd5	1.6419932
49	0x3e0f7017	0.14007603
50	0xbf815a5d	-1.0105702
51	0xbf933ab8	-1.1502295
52	0xbf95dcd2	-1.1708014
53	0xbf2d130d	-0.67607194
54	0x3c6b30a0	0.014354855
55	0x3e886440	0.26638985
56	0x3c64dc31	0.013968513
57	0xbf3190f0	-0.6936178
58	0xbf7222b5	-0.9458421
59	0xbf085f63	-0.5327055
60	0xbe834ff0	-0.25646925
61	0xbde9a007	-0.11407476
62	0x3ed989fc	0.42488086
63	0x3fb4b03b	1.4116281
64	0x3f95314f	1.1655673
65	0x3ed79cb7	0.4211175
66	0xbec52f7b	-0.38512787
67	0xbf3f3830	-0.7469511
68	0xbf858fb3	-1.0434479
69	0xbf3e39c7	-0.7430691
70	0xbdc0ea89	-0.09419734
71	0x3f4960fb	0.78663605
72	0x3ec4a04b	0.38403544
73	0x3f67d4ca	0.90559065
74	0x3fdc3ddf	1.7206382
75	0x3fd025b1	1.6261503
76	0x3faba633	1.3410095
77	0x3f70d588	0.9407582
78	0x3bcf2734	0.006321812
79	0xbf83c100	-1.0293274
80	0xbfc51da5	-1.5399672
81	0xbfc28cea	-1.5199254
82	0xbfc7935e	-1.5591848
83	0xbffa6e74	-1.9564958
84	0xbfbc6e9f	-1.4721259
85	0xbeaee853	-0.34161624
86	0x3fa41ed8	1.2821913
87	0x404954c0	3.1457977
88	0x407e91b4	3.977643
89	0x4033c057	2.8086145
90	0x3f75e828	0.9605737
91	0xbf854d6c	-1.0414252
92	0xc02630c2	-2.596726
93	0xc055728a	-3.335116
94	0xc044368e	-3.0658298
95	0xc0147ff3	-2.3203094
96	0xbff3e8f8	-1.9055471
97	0xbf03d8c9	-0.5150266
98	0x3fd082b4	1.6289887
99	0x404dc891	3.2153666
100	0x40866cae	4.2007666
101	0x404562d9	3.0841582
102	0x3fa3f4c1	1.2809068
103	0xbf4403e6	-0.7656845
104	0xc011312d	-2.2686265
105	0xc009de96	-2.1542106
106	0xbfa01a16	-1.2507961
107	0xbdfb50ff	-0.12271308
108	0x3f6a58b9	0.9154163
109	0x3ee0b7c7	0.4389021
110	0x3de9a010	0.114074826
111	0xbf2c64b1	-0.6734114
112	0xbf8ec16d	-1.1152779
113	0xbf3b4a13	-0.73159903
114	0x3e866df4	0.26255763
115	0x3fc43c06	1.5330818
116	0x3fcd6209	1.6045543
117	0x3f8752b8	1.0572119
118	0x3edd2793	0.43194255
119	0xbeb1f611	-0.34758046
120	0xbf886737	-1.0656499
121	0xbfbe0533	-1.4845337
122	0xbfc588f4	-1.543242
123	0xbfd602ff	-1.6719664
124	0xc00e795b	-2.226157
125	0xc003cc86	-2.0593581
126	0xbfdfbb7e	-1.7479093
127	0xbf120a4e	-0.57046974
128	0x3fa59db7	1.2938756
129	0x4081cae1	4.0560155
130	0x40b6f58d	5.7174745
131	0x40a26359	5.0746274
132	0x402ddaa5	2.71647
133	0xbe936814	-0.28790343
134	0xc049eaaa	-3.1549478
135	0xc0930623	-4.594499
136	0xc0824538	-4.0709496
137	0xc018dac8	-2.3883533
138	0x3e74dbff	0.23912047
139	0x401df748	2.4682178
140	0x4087e629	4.2468457
141	0x40729587	3.7903764
142	0x3fd46cb4	1.6595674
143	0xbe69bd90	-0.22826219
144	0xc004dd49	-2.0760062
145	0xc043587c	-3.0522757
146	0xc032f5b4	-2.7962465
147	0xbfc37951	-1.5271398
148	0xbf728e52	-0.94748414
149	0xbfa8f56c	-1.3199897
150	0xbfa5d470	-1.2955456
151	0xbefc207d	-0.49243537
152	0x3e0c08e4	0.13675267
153	0x3fa4eec0	1.2885361
154	0x3fe6f77c	1.8044276
155	0x402881e5	2.6329281
156	0x3fbbfd18	1.4686613
157	0x3fac36ec	1.3454261
158	0x3f89774f	1.0739535
159	0x3e89a2a2	0.2688189
160	0x3e44eb25	0.19230326
161	0xbe934624	-0.2876445
162	0xbf714482	-0.9424516
163	0xc004aa95	-2.0729115
164	0xc03d3161	-2.9561388
165	0xbfd68e87	-1.6762246
166	0xbea96590	-0.330853
167	0x3f82cc88	1.0218668
168	0x40122d31	2.2840083
169	0x400e88ef	2.2271078
170	0x3fcb7492	1.589495
171	0xbcdeef46	-0.027213704
172	0xbf7cc9ba	-0.9874531
173	0xbfd39aaf	-1.6531581
174	0xc01494a0	-2.3215714
175	0xc0114cbc	-2.2703085
176	0xbfc60835	-1.5471255
177	0xbebed9ab	-0.37275442
178	0x3f9c37e5	1.2204558
179	0x4025fdfb	2.5936267
180	0x404ba26e	3.181789
181	0x3fcffb5e	1.6248586
182	0x3ef09a1f	0.46992585
183	0x3e2bb94a	0.16769901
184	0xbdc3dd3b	-0.09563681
185	0x3d2e2e26	0.04252448
186	0x3d163023	0.036667
187	0xbdea0e9d	-0.114285685
188	0xbf14b087	-0.5808186
189	0xbf9d5130	-1.2290401
190	0xbf44a4b3	-0.7681381
191	0xbe93a7e4	-0.28839028
192	0xbed29f50	-0.4113717
193	0xbd312e07	-0.043256786
194	0x3db2cf93	0.08730998
195	0x3f228bd9	0.6349464
196	0x3f4b74d1	0.7947512
197	0x3f46c786	0.776482
198	0x3ee94af1	0.45564988
199	0xbe8b96f9	-0.2726362
200	0xbf0265eb	-0.50936764
201	0xbf0c1a30	-0.5472746
202	0xbedcd8c9	-0.43134144
203	0x3e180e83	0.14849286
204	0xbe55dabb	-0.2088422
205	0xbea5f026	-0.3240978
206	0xbf7d9e93	-0.9907009
207	0xbfc85f5e	-1.5654104
208	0xbf7bbf21	-0.98338515
209	0x3ee0ae08	0.43882775
210	0x3ff68bc5	1.9261404
211	0x4030e38a	2.763888
212	0x4006d7e6	2.1069274
213	0x3f85e2b3	1.0459808
214	0xbf89a0d7	-1.075221
215	0xc0332fb6	-2.799787
216	0xc042041f	-3.0315015
217	0xbfc5a610	-1.5441303
218	0xbe63d16a	-0.22247854
219	0x3f8a5db6	1.0809848
220	0x402b5ac6	2.6774154
221	0x4030548b	2.75516
222	0x3f3b8b0c	0.73259044
223	0xc00f1799	-2.2358153
224	0xc06bcf28	-3.6845188
225	0xc0873c76	-4.2261305
226	0xc06a0997	-3.6568353
227	0xbfa01943	-1.2507709
228	0x3fe6964f	1.801462
229	0x404601b6	3.0938544
230	0x401a1560	2.4075546
231	0x3fc95bfe	1.5731199
232	0x3fe3389c	1.7751651
233	0x3f5b6e92	0.8571559
234	0x3f07e4de	0.530836
235	0xbe24d284	-0.1609593
236	0xbea0abdd	-0.3138112
237	0xbfaf4981	-1.3694307
238	0xc00ccb0c	-2.199893
239	0xbf9db3ef	-1.2320536
240	0xbea669d9	-0.3250263
241	0xbd822306	-0.063543364
242	0x3f035a46	0.5130962
243	0x3efb3233	0.49061736
244	0x40214542	2.5198522
245	0x40790269	3.890772
246	0x4098eee5	4.779162
247	0x40b26b9a	5.575635
248	0x40888ec6	4.2674284
249	0x3fa17e34	1.2616639
250	0xc020ba12	-2.5113568
251	0xc0a7f378	-5.2484703
252	0xc0c097e4	-6.0185413
253	0xc0b0fa7a	-5.5305758
254	0xc08c7a0c	-4.3898983
255	0xbf9f1f97	-1.2431515
