wav_resampled16kHz/train/mfcc_delta_delta/Kel_FlutePlayersRoscommonVol1_Tk3Tu2R1_AdamAndEve.npy (npy, 240768 bytes, 1 tensors)

array (column-major) f4 [3008, 20]
-3.486416 -3.486416 -3.486416 -3.486416 -3.486416 -2.947913 -0.7464071 0.023643956
-0.41580054 -1.3735985 -0.9384973 -0.5293974 -0.2599639 -0.07493101 0.11537162 0.6948019
0.74220896 0.97917366 1.2556554 0.5742157 0.011712425 -0.6752905 -2.1602037 -2.477989
-2.594735 -0.34862223 3.0814555 4.9079227 5.1329327 2.988752 -0.7385786 -3.019528
-4.1788898 -2.5120964 -0.63925624 0.056962267 0.002250366 -0.606981 -2.0089104 -2.9028466
-1.7486134 0.7753957 3.9678137 6.0271807 5.179318 2.4250278 -1.7064831 -4.1423473
-3.993539 -2.6615942 -0.5625374 0.55743504 0.6073022 0.44406912 0.37458876 0.4261147
0.31421852 -0.50510156 -1.2741387 -1.1364831 -0.6833132 0.6841788 1.393773 2.0665026
2.0984774 0.6620397 -0.36455303 -0.9002623 -1.1446762 -0.68364155 -0.7484391 -0.051425602
0.9897449 1.9325818 1.8977858 0.72138184 -0.42122895 -1.3045732 -1.6817898 -1.5633378
-0.38506404 0.059268862 -0.8670112 -2.5456169 -3.4002469 -2.7494848 -0.69603586 2.1696072
4.320807 6.336224 6.011783 2.907221 -0.7011604 -2.7499356 -3.5742855 -3.1870832
-2.2672484 -0.108346984 0.42226565 0.30725017 0.3307153 0.7312635 0.6214533 0.6139298
-1.0126277 -1.1167386 -0.8554191 -0.15721129 0.16913879 0.41552594 0.38834685 0.003674759
-0.8485168 0.009772577 0.61686236 0.8559231 0.5355304 0.71509194 0.5992397 0.73233134
0.6632278 0.067779064 -0.1237612 -0.44600046 -0.64439046 -0.48074085 -0.5420731 -0.47213814
-0.8236974 -1.9270749 -2.7475433 -2.1437173 0.09980356 2.4997368 4.6437635 5.044987
3.126339 0.37614536 -1.6008258 -1.9851434 -1.6736683 -1.2117398 -0.9183428 -1.5226278
-1.664054 -0.7906861 0.3342386 0.5712998 0.75978506 0.569315 0.29640123 -0.44364548
-0.4099046 -0.04435345 0.0131793 -0.41407993 -0.56271935 -0.8552763 -0.3279141 -0.29551038
0.34420103 1.0808643 1.5084835 1.6236148 1.6393073 1.1999477 0.6016547 -0.41931832
-1.0208331 -1.116313 -0.6826339 -0.41947296 0.07818564 -0.11277801 -0.30318668 -0.37131533
-1.644499 -3.4175816 -2.025037 0.9600315 2.9060707 3.798896 3.7924354 1.8531054
-1.35078 -3.4099429 -1.6750468 -0.553336 -0.8075516 -0.35426363 0.29402444 -0.009527198
0.55280054 0.8187435 1.2270865 1.3783412 1.0412446 0.5411983 -0.12650284 -1.1012814
-1.059434 -1.5482204 -0.93612427 0.303714 0.5801696 0.65999585 0.4517195 -0.19113983
-0.36106676 -1.3581859 -1.0068364 -0.3299007 0.3444177 0.6984542 0.428738 0.13372442
0.07827406 -0.67765355 -0.33254665 0.23181254 0.77761966 0.60300547 0.20147848 0.020407887
0.10999861 0.8562961 1.3565719 1.7660886 1.7292408 0.8968753 -0.5213228 -1.6161848
-1.9695019 -1.9218612 -2.866897 -3.1776237 -2.5834007 -1.479105 -0.21692526 0.8017178
1.8088437 1.612696 1.0463448 1.1449564 1.4505705 0.9637264 -0.038355064 -0.84628236
-1.1138157 -1.8426073 -1.634728 -0.8393443 -1.4942819 -1.3842151 -0.57180685 4.16032
00000000: 7121 5fc0 7121 5fc0 7121 5fc0 7121 5fc0
00000010: 7121 5fc0 9baa 3cc0 8914 3fbf f8b0 c13c
00000020: cfe3 d4be 13d2 afbf 5c41 70bf 9786 07bf
00000030: fd19 85be 6e75 99bd f547 ec3d 8ade 313f
00000040: 6801 3e3f 20ab 7a3f 51b9 a03f cdff 123f
00000050: 79e5 3f3c d7df 2cbf c740 0ac0 5f97 1ec0
00000060: 2310 26c0 9d7e b2be 9136 4540 b40d 9d40
00000070: fc40 a440 b647 3f40 7d13 3dbf f23f 41c0
00000080: 77b9 85c0 30c6 20c0 4ca6 23bf 4451 693d
00000090: e07a 133b 1b63 1bbf fd91 00c0 3dc8 39c0
000000a0: 90d2 dfbf 5580 463f a9f0 7d40 aade c040
000000b0: f9bc a540 a833 1b40 0a6e dabf 1c8e 84c0
000000c0: 2596 7fc0 8f57 2ac0 7302 10bf 10b4 0e3f
000000d0: 2878 1b3f 075d e33e 19ca bf3e b52b da3e
000000e0: 40e1 a03e 564e 01bf fa16 a3bf 4778 91bf
000000f0: 9ded 2ebf 5826 2f3f 2767 b23f 9441 0440
00000100: 744d 0640 6f7b 293f b2a6 babe 9777 66bf
00000110: c084 92bf 2203 2fbf b499 3fbf a7a3 52bd
00000120: ec5f 7d3f d75e f73f a5ea f23f 7bac 383f
00000130: 52ab d7be 41fc a6bf e344 d7bf 741b c8bf
00000140: 1d27 c5be e8c3 723d 72f4 5dbf 63eb 22c0
00000150: a59d 59c0 8ff7 2fc0 682f 32bf d8da 0a40
00000160: 0d44 8a40 59c2 ca40 8760 c040 e90f 3a40
00000170: 3f7f 33bf f2fe 2fc0 18c1 64c0 2cf9 4bc0
00000180: 991a 11c0 06e5 ddbd 3433 d83e e54f 9d3e
00000190: 8453 a93e 1634 3b3f 9017 1f3f 812a 1d3f
000001a0: c99d 81bf 4af1 8ebf bffc 5abf fffb 20be
000001b0: b832 2d3e d1bf d43e 66d5 c63e 3ad4 703b
000001c0: 6638 59bf 291d 203c b1ea 1d3f c71d 5b3f
000001d0: 8518 093f 4410 373f c667 193f 117a 3b3f
000001e0: 4cc9 293f c0cf 8a3d 8376 fdbd 2c5a e4be
000001f0: c6f6 24bf aa23 f6be 4dc5 0abf 17bc f1be
00000200: d5dd 52bf 64aa f6bf c0d7 2fc0 aa32 09c0
00000210: cf65 cc3d b0fb 1f40 b699 9440 8970 a140
00000220: f015 4840 2096 c03e dce7 ccbf 2e19 febf
00000230: c33a d6bf 4a1a 9bbf 8418 6bbf 78e5 c2bf
00000240: b9ff d4bf 676a 4abf 5221 ab3e b440 123f
00000250: 4681 423f a1be 113f e7c1 973e 8025 e3be
00000260: 04df d1be f7ab 35bd feed 573c 4902 d4be
00000270: 600e 10bf 63f3 5abf 5be4 a7be 234d 97be
00000280: 1e3b b03e c359 8a3f fd15 c13f 9cd2 cf3f
00000290: d2d4 d13f e397 993f 0b06 1a3f e4b0 d6be
000002a0: a9aa 82bf 58e3 8ebf 18c1 2ebf 29c5 d6be
000002b0: cb1f a03d 28f8 e6bd 493b 9bbe 0b1d bebe
000002c0: f17e d2bf a8b9 5ac0 359a 01c0 a0c4 753f
000002d0: 10fd 3940 1d21 7340 43b7 7240 8f32 ed3f
000002e0: 5ce6 acbf 813c 5ac0 ef67 d6bf 6ea7 0dbf
000002f0: b4bb 4ebf 0b62 b5be 5f8a 963e f717 1cbc
00000300: 5684 0d3f 2d99 513f 2c11 9d3f 7c6d b03f
00000310: 8147 853f f98b 0a3f f689 01be caf6 8cbf
00000320: 899b 87bf 162c c6bf d7a5 6fbf 6780 9b3e
00000330: ff85 143f 7df5 283f c747 e73e 29ba 43be
00000340: bedd b8be 09d9 adbf 04e0 80bf bfe8 a8be
00000350: 8457 b03e e5cd 323f 8c83 db3e 0eef 083e
00000360: 264e a03d b47a 2dbf 8e43 aabe 4460 6d3e
00000370: 1512 473f 915e 1a3f 6050 4e3e 712e a73c
00000380: f446 e13d 3936 5b3f 26a4 ad3f 310f e23f
00000390: c357 dd3f 9f99 653f 6975 05bf 25df cebf
000003a0: a318 fcbf 8cff f5bf 3e7b 37c0 305e 4bc0
000003b0: 7056 25c0 5053 bdbf a821 5ebe 613d 4d3f
000003c0: 3188 e73f d36c ce3f a0ee 853f ee8d 923f
000003d0: 4bac b93f c6b6 763f 331a 1dbd f6a5 58bf
000003e0: 8391 8ebf 8eda ebbf c43e d1bf 45df 56bf
000003f0: a144 bfbf f62d b1bf ef61 12bf 5721 8540
