wav_resampled16kHz/train/mfcc_delta_delta/Kel_FlutePlayersRoscommonVol1_Tk3Tu1R1_GerrysBeaverHat.npy (npy, 257648 bytes, 1 tensors)

array (column-major) f4 [3219, 20]
0	0x3d97b722	0.07407977
1	0x3d97b722	0.07407977
2	0x3d97b722	0.07407977
3	0x3d97b722	0.07407977
4	0x3d97b722	0.07407977
5	0x3f6bc8c2	0.9210321
6	0x3fe0a41f	1.7550086
7	0x4049dbf6	3.1540504
8	0x40a09d7f	5.0192256
9	0x3fc84ea6	1.5649002
10	0xbf392b21	-0.72331434
11	0xbfc4f4eb	-1.5387243
12	0x3ded0ca2	0.11574675
13	0xbf444ba8	-0.7667794
14	0xc0133d21	-2.300606
15	0xc04cc5d9	-3.1995757
16	0xc0829f61	-4.0819554
17	0xc06b3ba7	-3.675516
18	0xc01538b3	-2.3315856
19	0xbf6a0235	-0.9140962
20	0x3d521be1	0.05129612
21	0x3d591e8e	0.053007655
22	0xbeba23ea	-0.36355525
23	0xbeacd661	-0.33757308
24	0xbe8c30f7	-0.27381107
25	0xbe8f04d9	-0.27933386
26	0xbe9132c8	-0.28359056
27	0xbebf2600	-0.3733368
28	0x3da9c920	0.08290315
29	0x3e7c464b	0.2463619
30	0xbd2a382a	-0.04155747
31	0xbe8856eb	-0.26628813
32	0x3d88a315	0.066717304
33	0xbe137880	-0.14401436
34	0xbdc13996	-0.09434812
35	0x3d98fa13	0.07469573
36	0x3f0b52f4	0.5442345
37	0x3f0eb9e6	0.5575241
38	0x3ed35f16	0.41283482
39	0x3df0c6b4	0.117566496
40	0x3ee53fb1	0.44775155
41	0xbdad5e92	-0.084653035
42	0xbe95bb49	-0.2924445
43	0xbf1bd0d0	-0.608655
44	0xbedac53a	-0.42728597
45	0xbe82b5f0	-0.25529432
46	0xbdbcf7b5	-0.09226934
47	0xbd4994f6	-0.049214326
48	0x3e903f15	0.28173128
49	0xbcc15f84	-0.023605116
50	0x3da290f9	0.079378076
51	0xbdfb5a44	-0.12273076
52	0x3ef6136b	0.4806169
53	0x3ec9db70	0.3942523
54	0x3e012824	0.12612969
55	0xbe080200	-0.13282013
56	0xbe36a9d8	-0.17838228
57	0xbe6ef703	-0.23336415
58	0xbdacda16	-0.08440034
59	0xbcb9798f	-0.022640971
60	0x3e29c109	0.16577543
61	0xbe2b9574	-0.1675623
62	0xbd2cf40b	-0.042224925
63	0x3d82c519	0.0638525
64	0x3e50a2f0	0.20374656
65	0x3daa3b1b	0.08312055
66	0x3e746848	0.23867905
67	0xbcac07b0	-0.02099976
68	0xbe2df1ee	-0.1698682
69	0xbe820d11	-0.25400594
70	0xbe3a1473	-0.18171863
71	0xbcbf02bc	-0.023316734
72	0x3dd3702b	0.10324129
73	0xba40a901	-0.00073494023
74	0x3e33b6ad	0.17550154
75	0xbea16b66	-0.3152725
76	0xbd929007	-0.07156377
77	0xbe74489a	-0.2385582
78	0x3c2afb91	0.010435955
79	0x3e3b365c	0.18282455
80	0x3da640a2	0.081177965
81	0xbdb339ee	-0.087512836
82	0x3cc97e52	0.024596367
83	0x3e0aeef5	0.13567717
84	0x3ee42f6e	0.44567436
85	0x3e819151	0.2530618
86	0x3d365fa5	0.044524807
87	0xbeaa27f7	-0.33233616
88	0xbf076fbd	-0.52904874
89	0xbf0379cc	-0.5135772
90	0xbe7e78c2	-0.24850753
91	0x3cc7e1e3	0.024399703
92	0x3edad744	0.4274236
93	0x3eaf37f8	0.34222388
94	0x3dd2fc2a	0.10302003
95	0x3cadef3d	0.021232242
96	0xbf44bcfe	-0.7685088
97	0xbfc68c19	-1.5511504
98	0xbfd9ba64	-1.7010007
99	0xbfb93993	-1.4470695
100	0xbe3a5cf3	-0.1819952
101	0x3e400482	0.1875172
102	0x3f0a123f	0.5393409
103	0x3de3ae97	0.11117285
104	0x3e8d4335	0.27590337
105	0x3fd654fb	1.6744684
106	0x4067eb7f	3.6237485
107	0x408d14fb	4.408811
108	0x406fa31b	3.7443302
109	0x3fb7fbd7	1.437373
110	0xbf9e8aa6	-1.2386062
111	0xc0633b86	-3.550508
112	0xc061b8d2	-3.5269055
113	0xc0136ca1	-2.3035052
114	0xbf0f504e	-0.5598191
115	0x3e6da63b	0.23207943
116	0x3f1e7bdb	0.6190774
117	0x3f932506	1.1495674
118	0x3f8451c6	1.0337455
119	0x3ed51482	0.4161721
120	0x3cf68341	0.030091884
121	0xbead3747	-0.33831236
122	0xbee7d247	-0.45277616
123	0xbf7b99bb	-0.9828145
124	0xbf25fbce	-0.6483735
125	0xbe838ed8	-0.2569492
126	0xbbec6388	-0.0072140135
127	0x3d2332ff	0.039843556
128	0xbe83d7dc	-0.25750625
129	0xbd3eba75	-0.046564538
130	0xbdc995bf	-0.09843015
131	0xbdd78dc7	-0.10525089
132	0x3e74bde2	0.2390056
133	0x3e1865d3	0.14882593
134	0x3c948c28	0.018133238
135	0xbe8b0c65	-0.27157894
136	0xbf446d25	-0.7672904
137	0xbf1251f9	-0.5715633
138	0xbf5a3541	-0.8523751
139	0xbf8cfc8e	-1.1014574
140	0xbf577680	-0.8416519
141	0xbf305bb1	-0.6888991
142	0x3eda2e0c	0.42613256
143	0x402bee2e	2.6864123
144	0x40760faa	3.844706
145	0x404e54df	3.2239301
146	0x3fb5d967	1.4206971
147	0xbf1c8be5	-0.6115096
148	0xbfe3e538	-1.7804327
149	0xc026ed50	-2.6082344
150	0xbfdfe0ce	-1.749048
151	0xbd15197f	-0.036401268
152	0x3eb45703	0.35222635
153	0x3e5f9551	0.21834303
154	0x3e7e9193	0.2486022
155	0x3e1d8a66	0.15384826
156	0xbe3af4be	-0.18257424
157	0xbf356a96	-0.7086576
158	0xbfb4a725	-1.4113508
159	0xc0083134	-2.1280031
160	0xc015b27d	-2.339019
161	0xbfce56e0	-1.6120262
162	0x3e4fd7c5	0.20297153
163	0x400a4f9b	2.1611087
164	0x407493cc	3.8215208
165	0x4088f188	4.279484
166	0x403c3cb2	2.9412045
167	0x3f5bd439	0.858707
168	0xbf82e9ef	-1.0227641
169	0xbff1baac	-1.8885093
170	0xc0047a1f	-2.0699537
171	0xbfb2b859	-1.3962508
172	0xbf4eefdf	-0.80834764
173	0xbe8d59c1	-0.2760754
174	0x3d5768eb	0.052590292
175	0x3e256eed	0.16155596
176	0x3f01c89e	0.5069674
177	0x3ef1f2ff	0.47255704
178	0x3e1b3e04	0.15160376
179	0x3e40b020	0.18817186
180	0xbe818d30	-0.2530303
181	0xbe61ad04	-0.22038656
182	0xbe665e87	-0.22496997
183	0xbe1ca15c	-0.15295929
184	0xbdf307d6	-0.11866729
185	0xbf35c9fb	-0.7101132
186	0xc0455a24	-3.0836267
187	0xc05b9898	-3.4311886
188	0xc0046570	-2.0686913
189	0x3f8c87e5	1.0978972
190	0x40a7c9a6	5.2433653
191	0x40e00767	7.0009036
192	0x40b81a66	5.7532225
193	0x40108acc	2.2584715
194	0xc0340bb0	-2.8132133
195	0xc07df29c	-3.9679327
196	0xc05eb0ef	-3.4795492
197	0xbfcbd766	-1.5925109
198	0x3e8c39bf	0.27387807
199	0x3eb757a8	0.35809064
200	0x3e33760e	0.17525503
201	0x3dcb73cc	0.09934196
202	0xbe5ea808	-0.21743786
203	0x3ea50ce6	0.32236403
204	0x3e8fde03	0.2809907
205	0xbc88f79a	-0.016719628
206	0xbeb85418	-0.36001658
207	0xbeccebb7	-0.40023586
208	0xbf17f493	-0.59357566
209	0xbf95095e	-1.1643484
210	0xbff9be24	-1.9511151
211	0xc03f802a	-2.9921975
212	0xc0467270	-3.1007347
213	0xc01f7def	-2.4920614
214	0xbf99ef24	-1.2026105
215	0x3f66bab1	0.9012862
216	0x4033dd47	2.8103807
217	0x403d64ba	2.9592729
218	0x406669a4	3.6001978
219	0x402c1f1f	2.6893995
220	0x3f961873	1.1726211
221	0xbec6ff69	-0.38866737
222	0xbfd550db	-1.66653
223	0xbfe3d01e	-1.7797887
224	0xbfc9bd4f	-1.5760897
225	0xbf74e9c6	-0.9566921
226	0x3f41dc75	0.75727016
227	0x3f0caf5d	0.54955083
228	0xbd0eab03	-0.03483106
229	0xbf12ec9e	-0.573923
230	0xbf958f30	-1.1684322
231	0xbf8279d3	-1.0193428
232	0x407b543e	3.9270167
233	0x40fde3c4	7.9340534
234	0x411a3362	9.637545
235	0x40f7e1cc	7.746313
236	0x408ac587	4.336612
237	0xc0053079	-2.0810835
238	0xc0df1242	-6.9709787
239	0xc1130776	-9.1893215
240	0xc0c8211b	-6.254041
241	0xc07ef40e	-3.983646
242	0xbf9c9aee	-1.2234781
243	0x3ed3ae59	0.41343954
244	0x3f3f7c2b	0.7479884
245	0xbb475a2f	-0.0030418744
246	0xbf02ac7e	-0.5104445
247	0xbf4d2b73	-0.80144423
248	0xbeccd6d5	-0.40007654
249	0x3de4e6ab	0.11176809
250	0x3f9429cd	1.1575257
251	0x3fcb4119	1.5879241
252	0x3f85addc	1.0443683
253	0x3ed12326	0.4084713
254	0xbe2d1458	-0.16902292
255	0x3f65ac2d	0.89715844
