wav_resampled16kHz/train/mfcc_delta_delta/McE_FlutePlayersRoscommonVol1_Tk2Tu1R1_CrehansKitchen.npy (npy, 157568 bytes, 1 tensors)

array (column-major) f4 [1968, 20]
0.5361188 0.5361188 0.5361188 0.5361188 0.5361188 0.2647804 -0.06798768 -0.28307578
-0.44949237 -0.27959087 0.5276925 4.5085306 7.136018 6.6139574 4.851724 2.4511845
0.8841719 -1.4760329 -2.989758 -3.2565012 -5.5300527 -6.038318 -5.1848726 -2.8493433
-0.284365 0.3461531 0.079335496 -0.9297691 -1.0956005 -0.32129228 -0.07513482 0.4433391
0.53286415 0.8051594 0.6408468 0.26706076 -0.14992295 -0.8412456 -0.5428325 -0.19459745
-0.28368017 0.8101791 1.1679555 1.2780803 0.69968206 -0.19002551 -0.33821517 -0.5918625
-0.8458781 -0.17592941 -0.2979989 -0.08729426 -0.50719047 -0.6863164 -0.49579275 -0.07152164
0.30074558 0.5373618 0.540895 0.584336 0.09732787 -0.30856845 0.23412266 -0.014441222
0.33589962 0.69785005 0.72821605 0.694529 0.18354297 0.19756962 0.18380663 -0.65538573
-0.31930214 -0.40363786 -0.8656573 -0.85881734 -0.8960409 -0.6870221 -0.80072737 -0.3828841
0.1758061 0.5172061 0.5663289 0.76131976 0.48570922 -0.014251643 -0.4131113 -0.3104609
-0.41389215 -0.22862174 -0.070126705 0.6285607 0.82929057 0.5895837 0.37249136 0.40151462
-0.55607337 -0.22357227 -0.035764042 0.3708354 0.19256657 -0.05709322 -0.024518464 -0.1448284
-0.6530701 -0.1855442 -0.114588864 0.1411551 0.5581462 0.5394693 0.3825468 -0.043475494
-0.33158538 -0.77394414 -0.6899357 -0.894575 -0.48466304 -0.20350015 -0.5179598 -1.0775726
-2.2202175 -2.3459787 -0.3331215 2.3045926 4.9670234 5.6780767 3.5761032 0.8374668
-1.9952402 -3.064877 -2.2066593 -1.2386594 -0.3624585 -0.49726346 -1.0077262 -0.7477593
-0.52037835 0.29555887 1.2473373 1.4441086 1.4512243 0.9016147 0.34711966 -0.22676016
-0.96942294 -1.0158138 -1.0084817 -1.0252583 -0.7368177 0.17238654 0.43783104 0.4313764
0.2254491 0.11979017 0.24296124 0.10880717 0.38170037 0.3056389 0.0752952 0.3553583
0.6292324 0.3754082 0.45325908 0.19350967 0.045036215 -0.57479006 -0.59490335 -0.65683895
-0.7666551 -0.7763282 -0.31651238 0.2849968 0.4073954 0.99057686 0.6919183 -0.060770735
-0.64368826 -0.813053 -0.3462319 0.71565104 0.9644837 1.2289418 0.12514299 -0.9119766
-1.1454315 -1.1516366 -0.29381412 0.7598565 1.0330287 0.9203901 0.043649416 -0.5071692
-0.560626 -0.4023369 -0.098817565 -0.03052297 0.060046844 -0.21156079 -0.6769966 -0.32026303
-0.21996178 0.11038778 -0.07901813 -0.39218923 -0.4038536 -0.3913955 -0.2116957 0.018879779
0.3145349 0.7541592 0.83255476 0.6288885 0.5293524 0.41526097 -0.09617194 -0.53936
-0.40464947 -0.22008327 0.052871324 0.13109551 0.015620459 0.22975545 0.9883946 0.6960166
0.50678307 0.25188223 0.272296 -0.43392605 -0.6906992 -0.4324025 0.030701973 -0.63347983
-0.34508428 -0.4090592 -0.15961345 -0.27637216 -0.07993203 -0.15716791 0.2877083 0.70206714
1.0121355 0.5571334 -0.18214193 -1.0885965 -1.95962 -2.5249991 -1.9558337 -0.5075013
1.1603277 2.2339602 2.7580729 2.0438204 1.4333408 0.75763613 0.27091354 0.36395806
00000000: 153f 093f 153f 093f 153f 093f 153f 093f
00000010: 153f 093f 4c91 873e 203d 8bbd 4fef 90be
00000020: dd23 e6be 8926 8fbe db16 073f e245 9040
00000030: 425a e440 8aa5 d340 5341 9b40 35e0 1c40
00000040: 1759 623f a5ee bcbf 3258 3fc0 846a 50c0
00000050: 31f6 b0c0 e739 c1c0 7aea a5c0 a45b 36c0
00000060: 4a98 91be fb3a b13e a67a a23d 5905 6ebf
00000070: a33c 8cbf 6c80 a4be 49e0 99bd 58fd e23e
00000080: c969 083f ed1e 4e3f 890e 243f 30bc 883e
00000090: 6785 19be df5b 57bf 12f7 0abf 8e44 47be
000000a0: 873e 91be e667 4f3f 917f 953f 2398 a33f
000000b0: 5d1e 333f 0c96 42be 8a2a adbe 4d84 17bf
000000c0: 788b 58bf d726 34be 5093 98be 55c7 b2bd
000000d0: 3cd7 01bf 6eb2 2fbf 8cd8 fdbe f079 92bd
000000e0: 53fb 993e 8b90 093f 1878 0a3f 0b97 153f
000000f0: d653 c73d affc 9dbe dabd 6f3e e09a 6cbc
00000100: 09fb ab3e 4da6 323f 5e6c 3a3f a7cc 313f
00000110: b0f2 3b3e b14f 4a3e ce37 3c3e 5cc7 27bf
00000120: 927b a3be 9fa9 cebe b89b 5dbf 74db 5bbf
00000130: f062 65bf aee0 2fbf 78fc 4cbf 6209 c4be
00000140: 8406 343e 9e67 043f eefa 103f dae5 423f
00000150: e1ae f83e b97f 69bc 5383 d3be bbf4 9ebe
00000160: ace9 d3be d11b 6abe 979e 8fbd 5be9 203f
00000170: 634c 543f f5ee 163f 30b7 be3e 5393 cd3e
00000180: d35a 0ebf 21f0 64be 517d 12bd 23de bd3e
00000190: 2c30 453e 95da 69bd f2da c8bc e54d 14be
000001a0: 9a2f 27bf 4cff 3dbe 91ad eabd f68a 103e
000001b0: abe2 0e3f a91a 0a3f 2ddd c33e 5c13 32bd
000001c0: 8fc5 a9be 3421 46bf a09f 30bf de02 65bf
000001d0: c125 f8be 5862 50be 0399 04bf e6ed 89bf
000001e0: 0b18 0ec0 8424 16c0 e78e aabe 727e 1340
000001f0: dbf1 9e40 ceb2 b540 e0de 6440 3964 563f
00000200: 0864 ffbf f226 44c0 e839 0dc0 648c 9ebf
00000210: 2994 b9be 5199 febe 2cfd 80bf 276d 3fbf
00000220: 8437 05bf 7e53 973e c0a8 9f3f 8dd8 b83f
00000230: b8c1 b93f 39d0 663f abb9 b13e d133 68be
00000240: 1a2c 78bf 3006 82bf ee15 81bf aa3b 83bf
00000250: 16a0 3cbf 1986 303e 642b e03e 5edd dc3e
00000260: 21dc 663e 8c54 f53d d5ca 783e 4bd6 de3d
00000270: 3b6e c33e b47c 9c3e 5f34 9a3d 86f1 b53e
00000280: 6015 213f 8135 c03e 9311 e83e 6627 463e
00000290: e577 383d 7125 13bf 964b 18bf 9926 28bf
000002a0: 8243 44bf 72bd 46bf e90d a2be 1aeb 913e
000002b0: 2196 d03e 7296 7d3f 8f21 313f bcea 78bd
000002c0: c1c8 24bf 3e24 50bf 4f45 b1be e834 373f
000002d0: 67e8 763f f74d 9d3f 7c25 003e 4c77 69bf
000002e0: 809d 92bf d468 93bf ce6e 96be f585 423f
000002f0: 493a 843f b09e 6b3f bbc9 323d d7d5 01bf
00000300: 2f85 0fbf 1aff cdbe dd60 cabd 4f0b fabc
00000310: aef3 753d 64a3 58be a64f 2dbf 84f9 a3be
00000320: a93d 61be fd12 e23d 42d4 a1bd 07cd c8be
00000330: e6c5 cebe fe64 c8be c2c6 58be c4a9 9a3c
00000340: b80a a13e 9410 413f 4f22 553f d6fe 203f
00000350: a483 073f 169d d43e cbf5 c4bd 7f13 0abf
00000360: 372e cfbe 825d 61be 9a8f 583d e73d 063e
00000370: f4ec 7f3c 0345 6b3e 6e07 7d3f 252e 323f
00000380: 89bc 013f b5f6 803e 626a 8b3e 8e2b debe
00000390: aad1 30bf dc63 ddbe b482 fb3c bc2b 22bf
000003a0: e3ae b0be 3570 d1be b571 23be a780 8dbe
000003b0: 67b3 a3bd a0f0 20be 814e 933e acba 333f
000003c0: a88d 813f 4ba0 0e3f 6a83 3abe 2157 8bbf
000003d0: d4d4 fabf 9699 21c0 c258 fabf 9beb 01bf
000003e0: 9e85 943f 34f9 0e40 4484 3040 f4cd 0240
000003f0: b677 b73f 71f4 413f 2eb5 8a3e b658 ba3e
