wav_resampled16kHz/train/mfcc_delta_delta/McE_FlutePlayersRoscommonVol1_Tk2Tu3R1_Mulvihills.npy (npy, 145568 bytes, 1 tensors)

array (column-major) f4 [1818, 20]
00000000: 1556 563f 1556 563f 1556 563f 1556 563f
00000010: 1556 563f c7bc 5f3e 83be 5d3d 622e 65bf
00000020: b0a8 9cbf 30db 81be cd74 7b3f a828 843f
00000030: 2bd1 3a3f 294f d83d 3416 17bf 4e0a a0bf
00000040: 6c06 43bf 527a 5bbd f723 0a3f ff2a 233f
00000050: 3985 293f 2fa3 bbbe ad27 a1bf b676 cbbe
00000060: c05a cb3e ea4e 423f b9aa c83f 701d 0340
00000070: e1bf b63f df1f b3be 8bda b2bf 9352 abbf
00000080: c520 9ebf 5739 83bf f2f6 77be 7425 c83c
00000090: 13f5 a53e 53e3 64bd 5b5c acbe fe3d c0be
000000a0: 8fc4 94be 60ec afbe 4406 5abe 79dd 4cbe
000000b0: 482c cc3d b474 c1be 4999 8c3e 1ca8 c93e
000000c0: 7c20 3d3f 33c3 703e 92d9 50be 4571 2dbe
000000d0: 2264 04bf 5d77 69be 9947 833e 1bd3 853e
000000e0: eec7 213f c24f 95be f384 e5be 5d74 ff39
000000f0: 71f2 b93d 54fe f03e 3aba 733e 23d6 f03e
00000100: 2740 053f f133 4c3f b2b9 8f3f 156c 943f
00000110: c6ba 433f 9862 81be 3800 40bf 61d9 8fbf
00000120: 8463 94bf 2ffe 59bf ab32 00c0 e044 49c0
00000130: 2cef 5bc0 875d f5bf afb3 863f 193b 8b40
00000140: b454 d740 7586 c640 982a 3540 0277 18bf
00000150: 96bd 50c0 0dee 63c0 3efa 44c0 b7a5 94bf
00000160: a09c 22bd df08 0a3f 27aa 363f 14d9 443f
00000170: e7bb a13e 4135 063f e167 8fbd 6692 a0be
00000180: 9e49 87bf 664b c0bf ce2d 96bf 4710 78bf
00000190: f9ba 15bf 02ed 2fbf 3b3d 1e3b eb64 8f3f
000001a0: 6a7d 253f 0c1e 603f 30f0 b03f ea91 893f
000001b0: aa8e 983f 58e3 063f 2180 723f 9759 9e3e
000001c0: dca5 65bf 626a 4bbf 21ff 97bf 5640 9cbf
000001d0: dfa2 bbbe 91ff 49bd b5a4 1bbf 404e aebe
000001e0: 96ae 003f d9d4 833f 2817 933f 9b89 5b3f
000001f0: 466c 3f3f 506c 8dbe 5c14 b8bf 764c a4bf
00000200: b70d bdbf 8572 abbf cc55 39bf c217 83be
00000210: 05b0 203f 52f2 b93f 24a3 f13f 94a7 d43f
00000220: 490b 6f3f de8d 1a3f 20e3 fa3e a096 5dbe
00000230: 55e6 bbbe 1959 61be 548a 31bf aab5 82bf
00000240: 1a75 9ebf 09fa 2cbf 3722 3d3d b01f 2d3d
00000250: 24e2 8d3f 4bb4 c23f ee99 a23f f48e 463f
00000260: 1ef7 88be 97f7 3cbf 74d2 61bf 9494 9abf
00000270: f4e4 2dbf cf71 21bf 176f 4bbe 1c08 833e
00000280: 9638 1abf 1b46 36bf 46bc 083e 9a7c 5a3e
00000290: 624c 403f b99f 7a3f caff 5c3f 408a cd3e
000002a0: cdc3 0abf a9d2 eabe 8daa 6abe 0942 acbe
000002b0: b53e 9bbe 4e64 e6bd b0a6 ac3e 4d59 773f
000002c0: 2ba6 b33f b458 d83f 8570 223f 5457 1abe
000002d0: f12b e4bf 234e ddbf 0c4a 9fbf 2e57 2dbf
000002e0: 62c5 e7bd bbf8 b33e bc4c 753e d5ee 863e
000002f0: aa51 90be 50c6 f13e 3d3c 2f3f 789d 663f
00000300: 6b92 863f 55cc d73e c9a5 c33d 6633 3dbf
00000310: ed97 6abf 80b6 5bbf 79a2 22bf f8b0 f73c
00000320: 4ef4 403e 0134 08be 3a7c e5bd 911c 15be
00000330: 7204 4b3e a347 09be 16c9 49be 1efb 72bd
00000340: bbae 93be c50a d9bd 586a 55be 56b2 bc3d
00000350: 7176 9ebd 2e28 21bf a81b 27bf 832a 4e3d
00000360: f769 0a3f d83a 903f 18d1 893f 8859 a53f
00000370: 4602 123f 691b 86be e495 84bf 1244 4abf
00000380: 7864 4d3e 642b 0a3f b6d0 2c3f 1160 453f
00000390: 4e88 de3d b587 21bf 5985 cdbf 1020 ddbf
000003a0: ca30 f1bd 78e5 1fbe 6e2b 5c3f e6eb 0540
000003b0: 02f8 ff3f f91f 8e3f 0deb 00bf 1909 09c0
000003c0: 254e 07c0 167b 16c0 28f1 86bf ab10 163e
000003d0: d375 2c3f 0197 b93f 2cfc ba3f dc91 813f
000003e0: 2232 bd3f d00b 893f a296 5a3d 430d bbbe
000003f0: 2a17 4abf ec96 44bf 7196 94bf c45c 71bf
0.837251 0.837251 0.837251 0.837251 0.837251 0.21849357 0.054136764 -0.895239
-1.2238979 -0.2536254 0.982251 1.0324907 0.72975415 0.105619736 -0.59018254 -1.2503145
-0.76181674 -0.05358345 0.5396113 0.6373748 0.66218907 -0.36647937 -1.2590233 -0.39739007
0.39717674 0.75901663 1.56771 2.0486717 1.4277307 -0.34985253 -1.3972944 -1.3384575
-1.235375 -1.0251874 -0.24215296 0.024431922 0.3241354 -0.055880856 -0.33664212 -0.37547296
-0.29056212 -0.34360027 -0.21291453 -0.2000636 0.099693835 -0.3778435 0.27460697 0.3938607
0.7387769 0.23511963 -0.20395496 -0.1693774 -0.5171529 -0.2279944 0.25640562 0.26137623
0.63195693 -0.29162413 -0.44827995 0.00048724088 0.09079445 0.47069037 0.23801509 0.47038373
0.52051014 0.79766756 1.1228545 1.1595484 0.7645687 -0.25270534 -0.75000334 -1.1238214
-1.159287 -0.8515348 -2.0030925 -3.1448288 -3.436473 -1.9169167 1.0523585 4.350964
6.7290897 6.203913 2.8307247 -0.5955659 -3.2615714 -3.5614045 -3.0777736 -1.1613072
-0.03970015 0.53919786 0.7135338 0.76893735 0.3158867 0.5242501 -0.07002235 -0.31361693
-1.0569341 -1.502301 -1.1732728 -0.9689984 -0.5848842 -0.6872102 0.0024145383 1.1202673
0.6464449 0.8754585 1.38233 1.0747654 1.1918538 0.5269065 0.9472676 0.30927727
-0.89706206 -0.794592 -1.1874734 -1.2207134 -0.36647698 -0.049315993 -0.607982 -0.34044075
0.50266397 1.0299331 1.1491442 0.85756844 0.7477459 -0.27621698 -1.4381213 -1.2835834
-1.476981 -1.3394324 -0.7239654 -0.25604063 0.62768584 1.4527075 1.8877912 1.6613641
0.93376595 0.6037272 0.49001408 -0.2163949 -0.36699167 -0.22006644 -0.69351697 -1.021169
-1.2379487 -0.67569023 0.046175208 0.042266548 1.1084638 1.5211271 1.2703226 0.7756188
-0.26751035 -0.7381529 -0.8821175 -1.2076592 -0.6792748 -0.63064283 -0.19866596 0.25592124
-0.60242593 -0.7120072 0.1335307 0.21336594 0.7511655 0.9789997 0.86327803 0.4014454
-0.5420502 -0.45863846 -0.22916622 -0.3364413 -0.3032128 -0.112496 0.33720922 0.9662064
1.4035085 1.690207 0.6345294 -0.15072376 -1.782591 -1.728947 -1.2444472 -0.6771115
-0.11316945 0.35150704 0.23955053 0.2635409 -0.28187305 0.47221613 0.6845129 0.9008403
1.0513433 0.4214808 0.095531054 -0.7390655 -0.9163807 -0.8582535 -0.63529164 0.030235752
0.18843195 -0.13301088 -0.11205335 -0.14561678 0.19825915 -0.13406233 -0.19705614 -0.059321515
-0.28844246 -0.10597757 -0.20841348 0.092137024 -0.07737435 -0.62951934 -0.65276575 0.05033351
0.5406794 1.1267958 1.0766935 1.2917948 0.5703472 -0.26192787 -1.0358243 -0.7901012
0.20057857 0.5397246 0.6750597 0.7709971 0.10865842 -0.630977 -1.605632 -1.727541
-0.11776884 -0.15614879 0.8600377 2.092523 1.9997561 1.1103507 -0.5035866 -2.1411803
-2.1141446 -2.3512626 -1.0542345 0.14654796 0.67367285 1.4499208 1.4608207 1.0122638
1.4780924 1.070673 0.05336631 -0.36533555 -0.78941596 -0.7679279 -1.1608411 -0.94282174
