wav_resampled16kHz/train/mfcc_delta_delta/McE_FlutePlayersRoscommonVol1_Tk2Tu2R1_TheSandMount.npy (npy, 146448 bytes, 1 tensors)

array (column-major) f4 [1829, 20]
1.61127 1.61127 1.61127 1.61127 1.61127 0.96791255 1.1563092 1.4713181
1.1516547 0.37134746 -0.5619919 -1.435716 -2.3030283 -3.1039426 -2.6306984 -1.3745999
-0.7875509 0.61440235 1.8821341 2.7679055 3.4189181 2.158817 0.9133412 -0.48204744
-1.6785034 -1.7772784 -1.8679957 -0.6900025 0.8434078 1.1974359 0.9176192 0.4589328
-0.06698163 0.2661093 -0.5679486 -0.059543874 0.54782337 0.55710703 -0.20413144 -0.59563446
-1.2775879 -1.1414698 -1.8889571 -1.5507605 -1.1380701 0.2328586 1.1408875 1.2373788
1.8564718 1.8088362 1.6349552 1.0325153 0.8055056 0.41095316 -1.1380881 -1.533838
-0.5206951 -0.3582377 0.59886044 1.3009869 1.2442719 0.034258112 -0.44990405 0.024178097
-0.592697 -0.84470236 -0.10701552 -0.04552493 -0.09744188 -0.7431457 -0.9753319 -0.928556
-1.0691457 -0.70274353 0.08234688 0.55791605 1.2087246 1.3635255 1.3044572 1.3402002
0.99350125 -0.45722288 -0.9756331 -1.1565403 -1.488503 -0.95433944 -0.5459536 -0.34427747
-0.25099576 -0.4237946 0.21663062 -0.108873904 0.6752436 1.5997716 1.0345266 0.5808004
-0.09490544 -0.5950379 -0.5415365 -0.6312102 0.14278248 0.21683446 -0.16580339 -0.30593333
-0.37688553 -0.44166037 0.34725776 1.1696252 0.74455273 0.6575236 0.38596568 0.011044358
-0.21197371 -0.119889244 0.2596629 0.1452418 -0.6652045 -0.8284764 -1.2394687 -0.63438857
0.05112345 0.7368446 0.53723705 0.08627737 -0.13066739 -0.36038896 -0.6262754 0.31162804
0.6309116 0.7574513 0.5323644 0.18376437 -0.057398874 0.23106919 -0.17024449 -0.054950185
0.18346272 0.5703834 0.22905214 0.0045249905 -0.84840024 -1.7727892 -2.4441018 -2.0812776
-1.079651 0.29824787 1.5953381 2.1802711 1.7361021 0.978943 0.48158833 -1.1089835
-0.9015485 -0.90580106 -0.411998 -0.4785173 0.29985324 0.5658776 -0.046602685 -0.36503083
0.7090338 0.28206354 0.617111 0.27557057 -0.1292626 -0.59080976 -0.14459828 0.943729
1.565166 1.7567079 1.3348142 0.11488202 -1.3276019 -1.5428097 -0.9765902 -0.49113446
0.70412385 1.3212893 0.9882222 0.49751624 -0.56337917 -1.0362822 -1.5686327 -1.4494054
-0.63855135 -0.6950977 -0.7807588 -1.5433644 -1.1375577 0.35758144 1.2069057 2.5977123
3.7874796 2.979094 1.4685249 -1.0706677 -1.6401101 -2.5150006 -2.4800274 -1.6725903
-1.0149367 -0.26967984 0.8686335 1.2556648 0.9779443 0.5050396 0.22330126 0.03497843
-0.46269593 0.008213011 0.48063415 0.09183615 -0.5477547 -0.54236627 -0.33052346 0.17322654
-0.21988857 -0.5034794 0.23111589 1.0079281 1.67015 1.4777445 1.5497887 0.4276354
-0.5950367 -1.375452 -0.9241698 -0.64135456 -0.6738118 -0.7783799 -0.4286047 -0.320205
-0.087450214 0.5618223 1.2272692 1.8011365 1.7706 1.3387198 -0.016980695 -3.072577
-5.4657693 -5.791595 -3.530381 0.0953869 3.036191 4.6895657 4.1718397 1.3493688
-0.21265431 -1.2889072 -1.4062996 -0.55490446 -0.16102666 -0.12564418 -0.32313013 -1.0830523
00000000: 183e ce3f 183e ce3f 183e ce3f 183e ce3f
00000010: 183e ce3f 1ec9 773f f101 943f 2754 bc3f
00000020: 6c69 933f 4121 be3e b3de 0fbf 8bc5 b7bf
00000030: d164 13c0 ffa6 46c0 5d5d 28c0 e4f2 afbf
00000040: f09c 49bf 7949 1d3f c5e9 f03f 5d25 3140
00000050: 8ecf 5a40 0f2a 0a40 bbd0 693f ecce f6be
00000060: 33d9 d6bf dc7d e3bf 7c1a efbf 01a4 30bf
00000070: 93e9 573f 9445 993f 18e9 6a3f 3df9 ea3e
00000080: aa2d 89bd 7a3f 883e 1465 11bf 47e4 73bd
00000090: 273e 0c3f 919e 0e3f d507 51be 807b 18bf
000000a0: 0088 a3bf af1b 92bf 59c9 f1bf 527f c6bf
000000b0: 48ac 91bf 7c72 6e3e 9a08 923f 6e62 9e3f
000000c0: dea0 ed3f f287 e73f 3646 d13f 7629 843f
000000d0: 9d35 4e3f 7468 d23e dfac 91bf ce54 c4bf
000000e0: 464c 05bf ef6a b7be eb4e 193f bd86 a63f
000000f0: 4d44 9f3f 3c52 0c3d d359 e6be 2511 c63c
00000100: feba 17bf 6a3e 58bf f42a dbbd 5978 3abd
00000110: 9c8f c7bd cc3e 3ebf 5aaf 79bf d9b5 6dbf
00000120: c4d9 88bf 00e7 33bf 7ba5 a83d 96d3 0e3f
00000130: 7db7 9a3f 0188 ae3f 74f8 a63f ae8b ab3f
00000140: 1956 7e3f 1e19 eabe 17c3 79bf 8309 94bf
00000150: 4487 bebf 974f 74bf 9dc3 0bbf 2345 b0be
00000160: 8482 80be 9bfb d8be 6bd4 5d3e 48f9 debd
00000170: c4dc 2c3f 51c5 cc3f 5e6b 843f 56af 143f
00000180: c95d c2bd 6754 18bf 23a2 0abf fe96 21bf
00000190: 9235 123e da09 5e3e 5dc8 29be 4ba3 9cbe
000001a0: 24f7 c0be 4f21 e2be c5cb b13e 47b6 953f
000001b0: 029b 3e3f 7753 283f 4b9d c53e 65f3 343c
000001c0: a30f 59be 7e88 f5bd 89f2 843e 44ba 143e
000001d0: d84a 2abf 0817 54bf e9a6 9ebf 4a67 22bf
000001e0: d366 513d d9a1 3c3f 5e88 093f 31b2 b03d
000001f0: accd 05be e784 b8be 9653 20bf b68d 9f3e
00000200: 6c83 213f 54e8 413f 0949 083f ba2c 3c3e
00000210: 151b 6bbd 679d 6c3e 9254 2ebe 7213 61bd
00000220: a7dd 3b3e a604 123f a58c 6a3e 5f46 943b
00000230: c230 59bf c2ea e2bf 2a6c 1cc0 a733 05c0
00000240: 0132 8abf f2b3 983e 0a34 cc3f 9089 0b40
00000250: 9838 de3f 029c 7a3f bf92 f63e 2cf3 8dbf
00000260: e2cb 66bf 94e2 67bf 67f1 d2be 3800 f5be
00000270: 5d86 993e 5bdd 103f 75e2 3ebd 52e5 babe
00000280: 3d83 353f a26a 903e fdfa 1d3f 9617 8d3e
00000290: 6a5d 04be 4f3f 17bf 9211 14be 3998 713f
000002a0: 5c57 c83f cedb e03f 31db aa3f 4447 eb3d
000002b0: dcee a9bf ca7a c5bf d101 7abf fa75 fbbe
000002c0: 7641 343f 0220 a93f 21fc 7c3f 73ba fe3e
000002d0: 9e39 10bf e5a4 84bf f5c8 c8bf 1e86 b9bf
000002e0: 1a78 23bf ecf1 31bf cfdf 47bf f78c c5bf
000002f0: 7e9b 91bf ea14 b73e e37b 9a3f eb40 2640
00000300: 1166 7240 7aa9 3e40 a0f8 bb3f a40b 89bf
00000310: 21ef d1bf c5f5 20c0 c5b8 1ec0 7017 d6bf
00000320: 72e9 81bf 7a13 8abe c45e 5e3f a0b9 a03f
00000330: 8f5a 7a3f 464a 013f 16a9 643e 8b45 0f3d
00000340: 7be6 ecbe dd8f 063c ae15 f63e 9714 bc3d
00000350: a739 0cbf 84d8 0abf 5f3a a9be 4c62 313e
00000360: 782a 61be 07e4 00bf a5a9 6c3e ca03 813f
00000370: 7ac7 d53f bb26 bd3f 7a5f c63f 07f3 da3e
00000380: 5354 18bf d00e b0bf 6496 6cbf d02f 24bf
00000390: ee7e 2cbf e843 47bf 1372 dbbe e9f1 a3be
000003a0: 1919 b3bd 96d3 0f3f 2817 9d3f a48b e63f
000003b0: 05a3 e23f 2c5b ab3f 191b 8bbc 1aa5 44c0
000003c0: 95e7 aec0 bf54 b9c0 c3f1 61c0 355a c33d
000003d0: f450 4240 ec10 9640 b67f 8540 1eb8 ac3f
000003e0: 0dc2 59be e9fa a4bf a001 b4bf 380e 0ebf
000003f0: 2ce4 24be dea8 00be 5071 a5be 75a1 8abf
