wav_resampled16kHz/train/mfcc_delta_delta/Wyn_FlutePlayersRoscommonVol1_Tk6Tu3R1_TheMaidOnTheGreen.npy (npy, 234288 bytes, 1 tensors)

array (column-major) f4 [2927, 20]
-4.2677784 -4.2677784 -4.2677784 -4.2677784 -4.2677784 -3.5699682 -4.0190206 -3.2358496
-2.4843822 -1.145368 0.020811016 0.62443346 0.6761373 0.8136792 0.4062354 0.10855375
0.11571508 0.236969 0.10980921 0.19765021 0.2629133 0.22716783 0.14765982 0.20180774
0.101285495 -0.11240596 0.11352549 0.72609556 -0.00887837 -0.5735334 -0.554016 0.00538338
-0.24968533 0.037779786 0.36007732 0.43184575 -0.35030746 0.06794042 0.35474604 0.16377808
-1.0390444 -2.0903175 -1.9957196 -0.61021495 1.2595277 3.8048768 3.7851512 1.7055829
-1.1192955 -2.2691293 -1.6010644 -0.4113994 0.39893144 0.8730466 -0.5336253 -2.1129334
-2.4016106 -1.0283846 0.48968548 1.5275136 2.6402488 1.5911616 0.31361067 -0.67243654
-0.8482233 -1.1829602 -0.6303724 -0.48133558 0.12533008 -0.33548212 0.30114093 0.8777907
1.0226294 0.8487022 1.1510537 0.9765443 0.8813331 0.35227537 -0.2574669 -0.8242619
-1.2822733 -1.0243605 -0.6925146 -0.031285472 0.037479237 -0.2678645 -1.197943 -2.0714588
-3.1874127 -2.122117 -0.22140193 2.6609228 3.6317484 4.7891726 3.9676514 1.8043981
-0.65605414 -2.445948 -3.4075103 -3.3777037 -2.4290473 0.30378604 1.7674984 1.7148862
0.9885119 0.50259477 0.24499938 0.12260125 0.50539297 0.31365925 -0.30502158 -0.9594178
-0.94852656 -0.5780418 -1.1534269 -0.9191072 -0.69450086 -0.19848272 1.097342 2.2378335
2.1315057 0.5334088 -0.63697994 -1.1199257 -1.3524269 -0.7150907 0.09480525 0.098264866
0.17084573 0.007367072 0.24691677 0.62993634 0.5796723 0.7535697 0.48106584 1.1727291
1.4329596 0.54622126 -0.42506525 -1.0016216 -1.3423244 -1.068446 -0.5860677 0.3754524
-0.15674783 -0.7189578 -0.9981079 -1.0172681 -1.2510449 -1.386214 -1.4899112 -0.55730325
1.4685452 3.814584 4.1371503 3.1464167 1.0045027 -1.3241092 -3.000316 -2.9961936
-2.5047643 -2.1166246 -0.93216497 0.8317847 3.0538795 3.9786224 4.0209517 2.3155515
-0.44440854 -2.6053126 -3.2192283 -2.8332717 -1.4569688 -0.0029385884 1.3559796 1.6956533
0.6113363 -1.7356915 -3.9866133 -3.0436447 -0.6187877 2.8326237 5.6432796 5.7355213
3.1603587 -0.65132815 -3.5391746 -3.9505377 -3.2769933 -1.4768816 0.12949185 1.1407865
1.4996785 1.1882119 0.61222965 0.12674406 -0.057265326 0.36490616 0.1769559 0.7201852
0.33035395 -0.2532652 -0.5051711 -0.4539387 -0.10173913 -0.020709513 -0.41103283 -0.8631493
-1.2338138 -0.9868878 -0.35574397 0.53097475 1.2942516 1.0110892 0.6377863 -0.08446582
-0.29554302 -0.20817992 -0.34162506 0.28127247 0.20283575 -0.08268992 0.099981844 -0.09997306
-0.44110435 -0.473955 -0.390594 0.2750829 0.5828441 0.92361796 1.0808835 0.4394103
-0.17747344 -0.5144007 -0.87080795 -0.9279001 -0.5491631 -0.4497028 -0.40377155 -1.3186717
-1.4036576 -1.0241512 0.1834157 2.507024 3.7289999 3.3813572 1.6183007 -0.7767064
-2.1046526 -2.8715029 -1.9807901 -1.1137315 -0.7339083 0.20091702 1.1520187 2.1122131
00000000: a491 88c0 a491 88c0 a491 88c0 a491 88c0
00000010: a491 88c0 5c7a 64c0 d19b 80c0 2918 4fc0
00000020: 1e00 1fc0 6b9b 92bf dd7b aa3c dfda 1f3f
00000030: 5617 2d3f 484d 503f 16fe cf3e 6e51 de3d
00000040: 07fc ec3d 00a8 723e a7e3 e03d d164 4a3e
00000050: 929c 863e af9e 683e 2334 173e b0a6 4e3e
00000060: c56e cf3d 1935 e6bd 0d80 e83d 66e1 393f
00000070: 9576 11bc 16d3 12bf fed3 0dbf 1167 b03b
00000080: 83ad 7fbe fabe 1a3d 0e5c b83e e31a dd3e
00000090: 805b b3be 5924 8b3d 46a1 b53e 71b5 273e
000000a0: 68ff 84bf c3c7 05c0 bd73 ffbf 0c37 1cbf
000000b0: 3438 a13f 1a83 7340 eb3f 7240 8a50 da3f
000000c0: 1345 8fbf 6a39 11c0 aeef ccbf f1a2 d2be
000000d0: be40 cc3e fb7f 5f3f ab9b 08bf 4d3a 07c0
000000e0: fdb3 19c0 1ba2 83bf 0eb8 fa3e 9185 c33f
000000f0: d6f9 2840 2fab cb3f 9491 a03e cd24 2cbf
00000100: 2a25 59bf 3d6b 97bf 1660 21bf 9e71 f6be
00000110: 8756 003e 50c4 abbe 252f 9a3e e4b6 603f
00000120: 85e5 823f 8c44 593f ba55 933f cffe 793f
00000130: 0c9f 613f 705d b43e b4d2 83be d402 53bf
00000140: 8821 a4bf 3f1e 83bf a348 31bf 3225 00bd
00000150: d483 193d 8925 89be 3256 99bf c892 04c0
00000160: 92fe 4bc0 c4d0 07c0 30b7 62be 8f4c 2a40
00000170: 916e 6840 e740 9940 00ee 7d40 84f6 e63f
00000180: 2af3 27bf 698a 1cc0 a614 5ac0 4c2c 58c0
00000190: 8375 1bc0 d889 9b3e 633d e23f 6481 db3f
000001a0: 1e0f 7d3f 0daa 003f 1ee1 7a3e 5d16 fb3d
000001b0: 6f61 013f f297 a03e ca2b 9cbe 689c 75bf
000001c0: a3d2 72bf 8cfa 13bf 7ea3 93bf 9c4a 6bbf
000001d0: cfca 31bf 0e3f 4bbe b475 8c3f aa38 0f40
000001e0: 976a 0840 7b8d 083f 1e11 23bf ba59 8fbf
000001f0: 531c adbf 2f10 37bf 4129 c23d 173f c93d
00000200: 2ff2 2e3e 7b67 f13b c0d7 7c3e 8243 213f
00000210: 6765 143f f2e9 403f 434e f63e fd1b 963f
00000220: 386b b73f 28d5 0b3f 27a2 d9be 2335 80bf
00000230: 49d1 abbf d7c2 88bf 8808 16bf 4c3b c03e
00000240: 8182 20be 9e0d 38bf 0084 7fbf d735 82bf
00000250: 3d22 a0bf 766f b1bf 69b5 bebf 6dab 0ebf
00000260: 4af9 bb3f 2522 7440 8963 8440 e45e 4940
00000270: 8b93 803f 697c a9bf 2d05 40c0 a3c1 3fc0
00000280: 0f4e 20c0 c776 07c0 5da2 6ebf d8ef 543f
00000290: c372 4340 c0a1 7e40 a3ab 8040 ff31 1440
000002a0: 8489 e3be 71bd 26c0 d607 4ec0 5354 35c0
000002b0: f47d babf 5595 40bb bd90 ad3f 2b0b d93f
000002c0: 8980 1c3f 242b debf ac24 7fc0 13cb 42c0
000002d0: df68 1ebf b549 3540 bf95 b440 6489 b740
000002e0: 5143 4a40 71bd 26bf d681 62c0 9cd5 7cc0
000002f0: 42ba 51c0 750a bdbf 8399 043e 4b05 923f
00000300: 77f5 bf3f 5417 983f 15bb 1c3f 32c9 013e
00000310: 0c8f 6abd fbd4 ba3e ed33 353e 0f5e 383f
00000320: 2724 a93e faab 81be e552 01bf a76a e8be
00000330: 9b5c d0bd ffa6 a9bc e572 d2be 5af7 5cbf
00000340: 9ced 9dbf aea4 7cbf 1324 b6be f6ed 073f
00000350: 09aa a53f 5f6b 813f f745 233f 6afc acbd
00000360: 6a51 97be 1e2d 55be 7be9 aebe f202 903e
00000370: 2db4 4f3e 5559 a9bd 48c3 cc3d adbe ccbd
00000380: 6ed8 e1be 3baa f2be f0fb c7be aad7 8c3e
00000390: 4535 153f 3a72 6c3f 645a 8a3f 63fa e03e
000003a0: 99bb 35be c4af 03bf 45ed 5ebf dc8a 6dbf
000003b0: f495 0cbf 723f e6be 25bb cebe 3cca a8bf
000003c0: 0dab b3bf 6317 83bf 53d1 3b3e 1573 2040
000003d0: efa7 6e40 2868 5840 7a24 cf3f 3bd6 46bf
000003e0: a1b2 06c0 b4c6 37c0 888a fdbf c18e 8ebf
000003f0: 6ae1 3bbf 31bd 4d3e 5975 933f 802e 0740
