wav_resampled16kHz/train/mfcc_delta/Fla_FlutePlayersRoscommonVol1_Tk6Tu2R1_TheGatehouseMaid.npy (npy, 137008 bytes, 1 tensors)

array (column-major) f4 [1711, 20]
0	0xbfd27e01	-1.6444703
1	0xbfd27e01	-1.6444703
2	0xbfd27e01	-1.6444703
3	0xbfd27e01	-1.6444703
4	0xbfd27e01	-1.6444703
5	0xc01e7380	-2.4757996
6	0xc02b4b43	-2.6764686
7	0xc00892f9	-2.1339705
8	0xbea693fc	-0.32534778
9	0x3fceb359	1.6148483
10	0x405a8731	3.4145014
11	0x4069fb8c	3.6559782
12	0x3fd9630c	1.6983352
13	0xbffadb75	-1.9598223
14	0xc0b42eb5	-5.6307015
15	0xc10a3afe	-8.639402
16	0xc12b0cb9	-10.690606
17	0xc12e7a0f	-10.904799
18	0xc10dbb87	-8.858283
19	0xc0aec007	-5.460941
20	0xc0383c46	-2.8786788
21	0xbf9d2b63	-1.2278866
22	0xbf94de1d	-1.1630284
23	0xbfa048ee	-1.2522256
24	0xbfbb470d	-1.4631058
25	0xc01e7d94	-2.4764147
26	0xc0678d07	-3.6179826
27	0xc08fd09a	-4.494214
28	0xc0946bd3	-4.638162
29	0xc09bc9dd	-4.8683915
30	0xc091de92	-4.558419
31	0xc0893e5a	-4.2888613
32	0xbf9bb03c	-1.2163157
33	0x40780f39	3.875929
34	0x411345e0	9.204559
35	0x415e28a4	13.884922
36	0x4180a2d0	16.079498
37	0x41845672	16.54221
38	0x416f6c3a	14.9639225
39	0x412ab9ae	10.670332
40	0x40931534	4.5963383
41	0xbe6a9309	-0.22907652
42	0xc06421c2	-3.5645604
43	0xc0950a7f	-4.6575313
44	0xc092d223	-4.5881515
45	0xc06b0ed6	-3.6727805
46	0xbfe36021	-1.7763711
47	0x3e0dc7ef	0.138458
48	0x3fad4543	1.3536762
49	0x4000837f	2.008026
50	0x3fffc0ae	1.9980676
51	0x3fae54e7	1.361966
52	0x3f531ab5	0.82462627
53	0xbe5a6091	-0.213259
54	0xbf5ecdaf	-0.870326
55	0xbf6288c6	-0.8848995
56	0xbf82581d	-1.018314
57	0xbfa1ba2c	-1.263494
58	0xc0007e7a	-2.0077195
59	0xc01a5a37	-2.4117563
60	0xc02c30f4	-2.6904879
61	0xc038c233	-2.886853
62	0xc0383c38	-2.8786755
63	0xbfe5ba17	-1.7947415
64	0xbf6121cf	-0.8794221
65	0xbedeba73	-0.43501624
66	0xbf1801c4	-0.59377694
67	0xbf8fd5cf	-1.1237124
68	0xbfb17d41	-1.386635
69	0xbfcd271f	-1.6027564
70	0xc00b2df8	-2.1746807
71	0xc024efcb	-2.5771358
72	0xc00ce394	-2.2013903
73	0xbf756902	-0.95863354
74	0x3f623082	0.8835527
75	0x3ff97900	1.9490051
76	0x403481c9	2.8204215
77	0x40691fa2	3.6425557
78	0x4088f433	4.2798095
79	0x408246a7	4.0711246
80	0x405db0b2	3.4639096
81	0x3fa8d09c	1.3188663
82	0xbefd169a	-0.49431306
83	0xbfcece42	-1.6156695
84	0xc03eafdc	-2.9794836
85	0xc06aa9ea	-3.6666207
86	0xc038d0ae	-2.8877368
87	0xbf0e60e2	-0.5561658
88	0x3ffc105d	1.9692494
89	0x408cea40	4.403595
90	0x40b15464	5.5415516
91	0x40b6fbc4	5.718233
92	0x409c4456	4.883342
93	0x402e3de2	2.722527
94	0xbecb0a77	-0.39656422
95	0xc0645a4a	-3.5680108
96	0xc0b49737	-5.643459
97	0xc0be5580	-5.947937
98	0xc0956990	-4.669136
99	0xc037b23d	-2.8702538
100	0xbe11c209	-0.14234175
101	0x4008af86	2.135713
102	0x40812ef2	4.0369806
103	0x409de8fc	4.9346905
104	0x408ab6b6	4.3348036
105	0x402004db	2.5002964
106	0x3f6bd631	0.92123705
107	0x3f14c306	0.5811008
108	0x3ee9a349	0.4563239
109	0x3f375a42	0.716221
110	0x3eefb9b7	0.46821377
111	0x3dfe4666	0.12415771
112	0xbdadcb33	-0.08486023
113	0xbe9027bc	-0.28155315
114	0xbe9c890d	-0.3057331
115	0x3e02dcb3	0.12779503
116	0x3f730780	0.9493332
117	0x40042f48	2.0653858
118	0x4034359d	2.8157723
119	0x404b0ba7	3.1725862
120	0x401b0c5a	2.4226289
121	0x3f967d35	1.175696
122	0xbe48cec4	-0.19610125
123	0xbff0194a	-1.8757718
124	0xc06f7f62	-3.7421498
125	0xc0b81521	-5.752579
126	0xc0f39bda	-7.612775
127	0xc1039c3f	-8.225646
128	0xc0e2165f	-7.065231
129	0xc0827678	-4.0769615
130	0xbe8a54de	-0.27017874
131	0x405d4fe6	3.4580016
132	0x40c7f0ee	6.2481604
133	0x40ea3397	7.3187976
134	0x40d9202a	6.7851763
135	0x408053ed	4.010245
136	0x3f0e8e1e	0.55685604
137	0xc0344a2f	-2.8170278
138	0xc0549213	-3.3214157
139	0xbff31e1c	-1.8993564
140	0x3f708160	0.9394741
141	0x4054ca73	3.3248565
142	0x40964949	4.696446
143	0x40c19687	6.049625
144	0x40b5f1a6	5.685748
145	0x408bf463	4.3735824
146	0x3f95406b	1.1660284
147	0xbf4c8c4e	-0.7990159
148	0xc03565b4	-2.8343325
149	0xc06c3778	-3.6908855
150	0xc0928b30	-4.5794907
151	0xc0bccf44	-5.900301
152	0xc0b34080	-5.6016235
153	0xc094bf8d	-4.6483827
154	0xc0467954	-3.1011553
155	0xbfe90c00	-1.8206787
156	0xbe8c7062	-0.2742949
157	0x3fbdfb03	1.4842228
158	0x40458f2b	3.0868633
159	0x4074c651	3.8246043
160	0x407781d0	3.8672981
161	0x4054c5f1	3.3245814
162	0x40300c93	2.7507675
163	0x3f9c9517	1.2232999
164	0xbf14caa9	-0.58121735
165	0xc0218cbd	-2.524215
166	0xc047a714	-3.1195726
167	0xc020ce22	-2.5125813
168	0xbfc6e8b9	-1.5539771
169	0xbe427bc4	-0.18992525
170	0x3f868e8e	1.0512254
171	0x40078adf	2.117851
172	0x40104cb4	2.2546816
173	0x3f6706cb	0.9024474
174	0xbf960b43	-1.1722187
175	0xc05627ea	-3.3461862
176	0xc0959aed	-4.675162
177	0xc0a00b41	-5.001374
178	0xc0905dde	-4.5114584
179	0xc042c81a	-3.0434632
180	0xbf9878fb	-1.191192
181	0x3e971b55	0.2951304
182	0x3fed2aa2	1.8528636
183	0x4043823b	3.0548236
184	0x404fbeeb	3.2460277
185	0x404e5e8f	3.2245214
186	0x40333bf4	2.8005342
187	0x4014d141	2.3252718
188	0x40099e9f	2.1503065
189	0x4005cebb	2.0907428
190	0x3f72c3d5	0.94830066
191	0x3e2016b3	0.15633659
192	0xbe30b76f	-0.17257474
193	0xbed16fef	-0.4090571
194	0xbe53a54d	-0.20668526
195	0x3ec1552b	0.3776029
196	0x3f41b193	0.7566158
197	0x3fa074cb	1.2535642
198	0x3fe30fec	1.7739234
199	0x3fd54769	1.6662418
200	0x3fe4028e	1.781328
201	0x3fb22ec2	1.3920519
202	0x3f7a4442	0.97760403
203	0x3f40dd77	0.7533793
204	0x3ef17349	0.47158268
205	0x3d23d9de	0.040002696
206	0xbf552e7c	-0.83274055
207	0xbfdb10fb	-1.7114557
208	0xc028fe93	-2.640538
209	0xbffc0caf	-1.9691371
210	0xbf566c9c	-0.83759475
211	0x3f03ff47	0.515614
212	0x4002ae62	2.0418935
213	0x4042aa74	3.0416536
214	0x404fed56	3.2488608
215	0x3ff52a6c	1.9153571
216	0xbdb1b844	-0.08677724
217	0xbff6a086	-1.9267738
218	0xc02e36e3	-2.7221
219	0xc01e5f53	-2.4745681
220	0xbf21a007	-0.6313481
221	0x3f7209fd	0.9454649
222	0x3fd2dda7	1.6473893
223	0x3eff2a69	0.49837044
224	0xbfc5dcd7	-1.545802
225	0xc08e3630	-4.4441147
226	0xc0e4a159	-7.1446958
227	0xc11022bd	-9.008481
228	0xc11a73e5	-9.653295
229	0xc1005bd5	-8.02242
230	0xc0c5307d	-6.162169
231	0xc080c34f	-4.0238414
232	0xc0037a7b	-2.0543506
233	0xbf04f4bc	-0.51935935
234	0x3ec2164d	0.3790764
235	0xbe6b53a2	-0.22981122
236	0xbece4009	-0.4028323
237	0xbfb1f9c6	-1.390435
238	0xc012e326	-2.295114
239	0xc05bd7a3	-3.4350364
240	0xc0949b8b	-4.643987
241	0xc09d6b4f	-4.919349
242	0xc0a05519	-5.010388
243	0xc0881d06	-4.253543
244	0xc00ca97d	-2.1978447
245	0x3fe655f3	1.799498
246	0x40a71627	5.221454
247	0x41169275	9.410756
248	0x41581ca8	13.506996
249	0x4175ce8c	15.3629265
250	0x416bbd93	14.733783
251	0x41410c0d	12.065442
252	0x40dfcdf2	6.99389
253	0x40140f07	2.3134172
254	0xbfe8377c	-1.8141932
255	0xc09a22f2	-4.816766
