wav_resampled16kHz/train/mfcc_delta/Fla_FlutePlayersRoscommonVol1_Tk6Tu1R1_DownTheBroom.npy (npy, 279248 bytes, 1 tensors)

array (column-major) f4 [3489, 20]
000000 af ce f8 3f af ce f8 3f af ce f8 3f af ce f8 3f
       1.9438075 1.9438075 1.9438075 1.9438075
000010 af ce f8 3f da 10 1d 40 75 0f 4b 40 0b e8 4d 40
       1.9438075 2.4541535 3.1728184 3.2172878
000020 75 71 44 40 62 a1 1e 40 5a 1b df 3f 7c 01 9e 3f
       3.0694249 2.4786 1.7430222 1.2344203
000030 00 80 58 3f bc b3 ed bd ab c2 4e bf 0f ff 7e 40
       0.8457031 -0.11606547 -0.8076579 3.9843175
000040 a1 d6 24 41 f9 9c 7e 41 eb c0 a2 41 50 4d ba 41
       10.3024 15.913323 20.344198 23.28775
000050 a1 ac c5 41 67 2a bf 41 41 95 a4 41 22 d3 69 41
       24.709291 23.895704 20.572878 14.614046
000060 f4 71 34 41 f3 bf 17 41 9b 3a ef 40 98 d7 a6 40
       11.277821 9.484363 7.475904 5.2138176
000070 9f d5 42 40 3e c0 86 3f ef d9 fd be 26 57 f5 bf
       3.0442884 1.0527418 -0.49580333 -1.916722
000080 4d c0 17 c0 35 a3 33 c0 f6 e1 93 c0 5d 2a a1 c0
       -2.371112 -2.8068364 -4.621333 -5.0364213
000090 3d 46 8b c0 30 45 5a c0 8a 93 03 c0 7a 19 28 bf
       -4.352324 -3.4104729 -2.05588 -0.65663874
0000a0 51 1b 9b 3e 9f d4 a7 3f 54 f9 e0 3f 55 f5 c8 bd
       0.30294278 1.3111762 1.7576089 -0.09812418
0000b0 e5 0c 93 bf c1 ba a6 bf e6 df 91 bf a4 80 0b bf
       -1.148831 -1.3025743 -1.1396453 -0.54493165
0000c0 a2 bd 38 3e 37 56 9b 3f 78 8c 13 40 ad 7a 6f 40
       0.18041089 1.2135686 2.3054485 3.7418625
0000d0 81 d2 8b 40 2f 1e 9b 40 13 e1 8e 40 54 69 25 40
       4.3694463 4.8474345 4.464975 2.5845537
0000e0 f7 1c 12 3f 1b 62 cf bf ab a4 90 c0 84 49 df c0
       0.57075447 -1.6201814 -4.520101 -6.977724
0000f0 e9 6a e5 c0 3d dc be c0 5e f2 86 c0 4a b3 f3 bf
       -7.1693006 -5.9643846 -4.217086 -1.903909
000100 b7 3b c7 be 24 75 a8 3f 6b bb 27 40 74 43 02 40
       -0.38912746 1.3160748 2.620814 2.035367
000110 a2 f0 20 3e 81 b0 80 bf 0c 7c e7 bf 8d 41 0b c0
       0.15716794 -1.0053865 -1.8084731 -2.175876
000120 75 33 d9 bf cd 21 39 bf 3c fa fc 3e 0c 20 cc 3f
       -1.6968828 -0.723172 0.49409664 1.594728
000130 75 8e 03 40 a4 e4 97 3f d1 dd 0c 3f 77 a7 1d 3d
       2.05557 1.186665 0.55025965 0.038489785
000140 4f 1a 0d 3f 0d d9 d0 3f 46 dd 48 40 98 1e 91 40
       0.5511827 1.6316239 3.1385055 4.5349846
000150 52 16 a2 40 cc 48 88 40 2d 3d 95 3f c5 59 12 c0
       5.0652246 4.2588863 1.1659294 -2.286729
000160 f1 95 b9 c0 94 3c 00 c1 ca ce 11 c1 6d 79 10 c1
       -5.7995534 -8.01479 -9.112986 -9.029645
000170 c2 d3 0a c1 ad 7c d3 c0 aa 0c 9d c0 e8 f2 95 c0
       -8.676699 -6.608969 -4.907796 -4.6859016
000180 2c d2 5e c0 fb 5e 6a c0 ac 57 3b c0 60 20 1b c0
       -3.4815779 -3.6620471 -2.927226 -2.423851
000190 4a 90 1a c0 c6 61 73 c0 b0 17 82 c0 41 5f 85 c0
       -2.4150567 -3.8028426 -4.0653915 -4.1678777
0001a0 10 0c 9c c0 1d 35 86 c0 63 bf 2c c0 86 35 07 40
       -4.8764725 -4.1939836 -2.6991813 2.1126418
0001b0 5b 7a f4 40 e4 cd 57 41 dc 81 92 41 51 79 a6 41
       7.639936 13.487766 18.313408 20.809237
0001c0 6c 6e a7 41 d8 56 8b 41 53 c1 37 41 a2 89 97 40
       20.928917 17.417404 11.484698 4.735551
0001d0 e1 bf 9f bf 5c 1f cd c0 06 0d 0d c1 76 80 11 c1
       -1.2480432 -6.410078 -8.81568 -9.093863
0001e0 58 b3 00 c1 a5 ff d6 c0 56 f8 8f c0 1d 4e ff bf
       -8.043785 -6.7187066 -4.4990644 -1.9945713
0001f0 44 82 0d 3f c4 8b 27 40 86 00 90 40 7e 52 c7 40
       0.55276895 2.6179056 4.500064 6.22882
000200 51 cf db 40 49 bc cd 40 52 30 84 40 01 74 e7 3f
       6.869057 6.429234 4.1308985 1.8082277
000210 6b 64 e9 be 50 66 3f c0 3c 21 87 c0 d2 29 71 c0
       -0.45584425 -2.9906197 -4.222807 -3.7681775
000220 fb 8c 6a c0 bb ac 07 c0 84 61 00 bf f7 c1 e4 3e
       -3.6648548 -2.1199176 -0.501488 0.44679233
000230 9e d1 b4 3e c4 39 2a bf c6 b4 2a c0 bb 46 94 c0
       0.35316175 -0.66494393 -2.6672835 -4.633634
000240 0e dd c0 c0 58 7f f0 c0 43 dc ec c0 fe ef cb c0
       -6.026984 -7.515545 -7.4018874 -6.373046
000250 9e 9e 8a c0 40 b2 b9 bf d7 4e 25 40 d1 bc cf 40
       -4.3318624 -1.4507523 2.582937 6.491799
000260 5c 8f 14 41 57 20 26 41 67 09 28 41 74 92 0f 41
       9.285 10.382895 10.5022955 8.973255
000270 38 0a c2 40 74 79 11 40 d2 83 84 bf f3 cf d8 bf
       6.0637474 2.273038 -1.0352728 -1.6938461
000280 f5 9d 2e bf 04 ee c2 3f f9 56 5d 40 79 56 95 40
       -0.68209773 1.5228887 3.4584334 4.6668057
000290 ab 19 97 40 fc 4b 5d 40 c3 75 94 3f 62 75 cd bf
       4.7218833 3.4577627 1.1598438 -1.6051447
0002a0 b4 1d 71 c0 42 0c 92 c0 e0 3b a9 c0 12 07 bd c0
       -3.767438 -4.5639963 -5.288559 -5.907113
0002b0 3e 8b d5 c0 1f 94 c9 c0 42 27 9d c0 f1 1e 2d c0
       -6.6732473 -6.299331 -4.911042 -2.7050135
0002c0 33 0b c7 be 79 94 e0 3f 32 3e 88 40 c8 65 c4 40
       -0.38875732 1.754531 4.257592 6.1374245
0002d0 d3 ac dd 40 12 cd d3 40 bf eb ad 40 a6 ee 99 40
       6.9273467 6.618783 5.4350276 4.810382
0002e0 6d 38 79 40 ac e6 28 40 a7 dc a8 3f 2d 1a 81 be
       3.894069 2.639079 1.3192338 -0.25215283
0002f0 63 5f c3 bf 85 b2 31 c0 bd c0 36 c0 a9 52 18 c0
       -1.5263485 -2.776521 -2.8555138 -2.3800452
000300 a4 6e dd bf 24 1c 8f bf d6 62 53 bf dc 5a 45 bf
       -1.729939 -1.1180463 -0.82572687 -0.77091765
000310 d0 48 07 bf b1 44 79 bf fe e3 f2 bf 2e f0 2b c0
       -0.5284548 -0.9737044 -1.8975828 -2.6865344
000320 96 db 32 c0 85 cb 45 c0 1b 39 8a c0 b5 8d 6e c0
       -2.7946525 -3.0905468 -4.319471 -3.727399
000330 72 56 4e c0 e2 1e d2 bf f5 74 2a 3f 10 dc 23 40
       -3.2240262 -1.6415675 0.6658471 2.5603065
000340 64 1b 83 40 e4 2f 9e 40 bd c9 9b 40 c9 11 34 40
       4.0970936 4.943346 4.8683763 2.8135855
000350 a7 86 d1 3f 1c 33 24 3f 77 e9 f1 3d eb ac 84 3f
       1.6369218 0.64140487 0.11812108 1.036527
000360 7c 49 07 40 33 b6 5b 40 18 82 84 40 88 f4 7a 40
       2.1138601 3.4329956 4.1408806 3.921175
000370 46 71 44 40 eb 62 a6 3f 6b d1 2c bf 2c 07 44 c0
       3.0694137 1.2998937 -0.67507046 -3.0629377
000380 30 31 98 c0 14 b3 c6 c0 d6 ca eb c0 94 9b fe c0
       -4.7560043 -6.20936 -7.3685102 -7.9564915
000390 73 4d e6 c0 ec 9d d6 c0 67 26 9c c0 ea 76 00 c0
       -7.1969543 -6.7067776 -4.879688 -2.007258
0003a0 13 61 84 3f f7 95 5e 40 e7 65 90 40 45 58 4a 40
       1.0342125 3.4779031 4.5124393 3.1616375
0003b0 97 97 8f 3f 99 4e a4 bf 9d 37 98 c0 5c 25 fb c0
       1.1218137 -1.2836486 -4.7567887 -7.8483105
0003c0 26 35 08 c1 29 6c c5 c0 37 37 b9 bf 99 da 87 40
       -8.512976 -6.169453 -1.4469975 4.2454343
0003d0 b0 32 04 41 b2 8d 2f 41 4f f4 39 41 8f 33 23 41
       8.262375 10.972094 11.622146 10.200088
0003e0 2d d1 cc 40 c4 69 65 3f f3 7a 59 c0 a7 66 c6 c0
       6.400534 0.8961451 -3.3981292 -6.200031
0003f0 03 d7 de c0 d0 cd de c0 ff 48 ca c0 ee 30 a3 c0
       -6.9637465 -6.9626236 -6.3214107 -5.099723
