wav_resampled16kHz/train/mfcc_delta/Kel_FlutePlayersRoscommonVol1_Tk3Tu2R1_AdamAndEve.npy (npy, 240768 bytes, 1 tensors)

array (column-major) f4 [3008, 20]
7.5398197 7.5398197 7.5398197 7.5398197 7.5398197 5.1417966 2.0267587 1.0703769
0.509986 0.15225321 -0.67756516 -1.4024583 -1.9281021 -2.1406522 -2.2228963 -1.7166768
-0.7911265 0.025610734 0.73613244 1.2565112 1.6722869 1.4606937 -0.3037033 -2.3617947
-4.4021883 -4.463751 -2.1605718 0.82318634 3.472145 5.8051553 7.1931443 6.766965
5.193858 2.151568 -0.3241604 -1.0522711 -1.4413831 -1.7955432 -3.3288727 -5.8122396
-6.6659627 -6.024026 -3.1537805 0.4177259 3.452618 5.7074857 6.763207 6.089069
3.2279887 0.3081576 -2.128615 -2.7948868 -2.200466 -1.7611623 -1.0931764 -1.0038003
-0.542387 -1.0241877 -1.9853438 -2.6186402 -3.0893755 -2.3993144 -2.1117778 -0.7506983
0.61448187 1.9317003 2.423495 1.9106578 1.2885844 0.25292474 0.005212911 -0.79461426
0.0694032 1.8208424 2.879927 3.3282034 3.269062 3.0053344 2.409603 1.3790895
-0.100012906 -1.1236968 -1.7812836 -3.6299784 -6.256195 -8.311573 -8.919983 -7.6843877
-5.518949 -0.91323507 3.9630327 7.452085 8.363602 7.653304 5.6115103 3.1446688
0.9101592 -1.3870895 -1.8833787 -1.196849 -0.4933221 -0.24554838 0.2598334 0.7993786
-0.2530978 -0.553898 -0.7216974 -1.1079772 -1.5309395 -1.6136935 -1.596732 -1.5062953
-0.6937964 -1.4971191 -1.2131675 -0.64088494 -0.13359591 0.52829003 1.2530322 2.175706
2.5823617 2.7019517 2.5443528 2.5293727 2.42391 1.7334808 1.0768826 0.2357408
-0.28329545 -1.8715271 -4.3367095 -5.915928 -5.6716456 -3.9898612 -1.0609453 1.9207331
4.1025624 6.433906 7.449645 6.5745196 4.484384 2.7096567 1.0064338 -0.098397
-0.67833275 -1.8808132 -2.197548 -2.285376 -1.5789495 -1.2923077 -0.63311553 -0.73634964
-1.131607 -0.89496726 -1.2486938 -1.4616708 -2.3809712 -2.809837 -3.0187368 -2.9061446
-3.118109 -2.906083 -1.3262862 0.15352097 1.9033781 2.7874572 3.2006407 3.4893367
3.2985225 2.631201 1.6344006 1.0654007 0.63568777 0.64629185 0.35496813 0.07901675
-1.6927534 -4.6298547 -5.320049 -4.192464 -2.9288568 -1.1648303 1.0918485 2.6701553
4.281643 3.806768 1.4002221 -0.32417932 -1.1261665 -1.7636691 -1.887307 -1.5229098
-1.0267856 -0.42568195 -0.004076767 1.6438868 2.9032583 3.1645281 3.1640522 2.7404315
2.011932 0.94551915 0.20525627 -0.36585897 -0.23658015 0.32391384 0.5758152 0.5743379
0.3859015 -0.22044499 -1.2599465 -1.5760784 -1.3544725 -1.4037169 -1.2564828 -1.0221484
-0.78441036 -0.6767105 -1.0051572 -1.1914896 -0.78494465 -0.1644755 0.0244325 0.020546086
0.2908947 1.719232 2.5079541 3.6905699 4.762533 5.8419695 6.098474 5.396511
3.9794486 1.7431053 -0.60302216 -3.7683456 -6.013074 -7.5234485 -8.043166 -8.313653
-7.6302266 -6.4599133 -4.7989607 -2.971249 -1.9322213 -1.3255857 -1.4286381 -1.4376792
-2.0536458 -3.1615994 -4.8268833 -6.329522 -8.079468 -8.875648 -9.062396 -5.3344517
00000000: 3446 f140 3446 f140 3446 f140 3446 f140
00000010: 3446 f140 9989 a440 6ab6 0140 1c02 893f
00000020: 718e 023f 44e8 1b3e e974 2dbf c183 b3bf
00000030: 0dcc f6bf 7200 09c0 ef43 0ec0 11bc dbbf
00000040: 4487 4abf 9acd d13c 2d73 3c3f 5cd5 a03f
00000050: 7f0d d63f 03f8 ba3f 007f 9bbe a527 17c0
00000060: bade 8cc0 0cd7 8ec0 cf46 0ac0 57bc 523f
00000070: a037 5e40 d5c3 b940 3d2e e640 fa8a d840
00000080: 1634 a640 4ab3 0940 5af8 a5be d2b0 86bf
00000090: 3e7f b8bf 5cd4 e5bf 400c 55c0 defd b9c0
000000a0: 914f d5c0 d2c4 c0c0 8ad7 49c0 2be0 d53e
000000b0: b1f7 5c40 b9a3 b640 316c d840 a7d9 c240
000000c0: 5e97 4e40 d5c6 9d3e 3a3b 08c0 6ddf 32c0
000000d0: 6fd4 0cc0 c46d e1bf 34ed 8bbf 877c 80bf
000000e0: e0d9 0abf 9518 83bf bf1f febf cd97 27c0
000000f0: 54b8 45c0 5e8e 19c0 5e27 07c0 c42d 40bf
00000100: af4e 1d3f f541 f73f 8b1a 1b40 6f90 f43f
00000110: 55f0 a43f 5a7f 813e 11d1 aa3b d76b 4bbf
00000120: 4423 8e3d 5d11 e93f b950 3840 4901 5540
00000130: 5038 5140 6657 4040 f036 1a40 0186 b03f
00000140: 91d3 ccbd 4cd5 8fbf 1a01 e4bf 9151 68c0
00000150: c032 c8c0 34fc 04c1 40b8 0ec1 81e6 f5c0
00000160: 3b9b b0c0 c6c9 69bf 54a2 7d40 7b77 ee40
00000170: 50d1 0541 dee7 f440 7e91 b340 4142 4940
00000180: 3100 693f 268c b1bf 8e12 f1bf 5932 99bf
00000190: b794 fcbe 0971 7bbe e208 853e 13a4 4c3f
000001a0: 0996 81be 42cc 0dbf 29c1 38bf 32d2 8dbf
000001b0: d3f5 c3bf 828d cebf b761 ccbf 49ce c0bf
000001c0: a49c 31bf 99a1 bfbf 1349 9bbf 0911 24bf
000001d0: 5ecd 08be 043e 073f 5c63 a03f c43e 0b40
000001e0: 6a45 2540 c7ec 2c40 add6 2240 3ee1 2140
000001f0: 5721 1b40 b3e2 dd3f 4ad7 893f 0966 713e
00000200: 1a0c 91be 338e efbf 53c6 8ac0 484f bdc0
00000210: 1f7e b5c0 e359 7fc0 0ecd 87bf 95da f53f
00000220: 3148 8340 8fe2 cd40 7e63 ee40 7762 d240
00000230: 1380 8f40 046b 2d40 d3d2 803f 5e84 c9bd
00000240: 37a7 2dbf 7dbe f0bf a0a4 0cc0 9a43 12c0
00000250: 041b cabf 576a a5bf dc13 22bf 6981 3cbf
00000260: 80d8 90bf 931c 65bf 33d5 9fbf 0718 bbbf
00000270: d561 18c0 5fd4 33c0 fc32 41c0 46fe 39c0
00000280: 198f 47c0 44fd 39c0 bfc3 a9bf 9a34 1d3e
00000290: e5a1 f33f b365 3240 4cd7 4c40 4b51 5f40
000002a0: fe1a 5340 9965 2840 0a34 d13f 0d5f 883f
000002b0: 6fbc 223f 6273 253f 62be b53e 89d3 a13d
000002c0: 25ac d8bf c527 94c0 d73d aac0 aa28 86c0
000002d0: 6472 3bc0 2919 95bf b1c1 8b3f d3e3 2a40
000002e0: 3803 8940 16a2 7340 7a3a b33f d5fa a5be
000002f0: 3926 90bf e9bf e1bf 4793 f1bf b5ee c2bf
00000300: b66d 83bf fcf2 d9be 6696 85bb e26a d23f
00000310: fcce 3940 a187 4a40 d57f 4a40 3b63 2f40
00000320: 7ec3 0040 8b0d 723f b32e 523e de51 bbbe
00000330: 1142 72be 09d8 a53e a068 133f cf07 133f
00000340: e294 c53e 55bc 61be ed45 a1bf f0bc c9bf
00000350: 5b5f adbf ffac b3bf 6ed4 a0bf c2d5 82bf
00000360: 1ecf 48bf e63c 2dbf fea8 80bf bb82 98bf
00000370: 22f2 48bf 446c 28be ab26 c83c 4450 a83c
00000380: 26f0 943e cb0f dc3f 5282 2040 4c32 6c40
00000390: ac66 9840 6af1 ba40 b326 c340 38b0 ac40
000003a0: 49af 7e40 131e df3f a95f 1abf 932c 71c0
000003b0: 1a6b c0c0 17c0 f0c0 cfb0 00c1 b904 05c1
000003c0: d12a f4c0 9cb7 cec0 1691 99c0 f228 3ec0
000003d0: 0753 f7bf cbac a9bf 9ddd b6bf df05 b8bf
000003e0: ef6e 03c0 a557 4ac0 d475 9ac0 728b cac0
000003f0: 8045 01c1 a702 0ec1 93ff 10c1 d4b3 aac0
