wav_resampled16kHz/train/mfcc_delta/Kel_FlutePlayersRoscommonVol1_Tk3Tu1R1_GerrysBeaverHat.npy (npy, 257648 bytes, 1 tensors)

array (column-major) f4 [3219, 20]
000000 1e 65 ff 40 1e 65 ff 40 1e 65 ff 40 1e 65 ff 40
       7.9810934 7.9810934 7.9810934 7.9810934
000010 1e 65 ff 40 c7 13 23 41 52 ac 41 41 e3 8b 5a 41
       7.9810934 10.192328 12.10457 13.659152
000020 1b 9f 5e 41 28 9f 8d 41 c4 8e 9c 41 24 dd a1 41
       13.913844 17.702713 19.56971 20.232979
000030 6b 44 95 41 03 3e 8b 41 d7 33 73 41 c7 cf 4a 41
       18.658407 17.40528 15.200156 12.675727
000040 fd 1f 20 41 34 ce e5 40 06 19 8c 40 f5 27 fc 3f
       10.00781 7.1814213 4.3780546 1.9699694
000050 cb ac 74 3f e8 9e 97 3f 4b 57 7f 3f 1b d6 07 3f
       0.9557616 1.1845369 0.99742573 0.53061074
000060 c2 69 fa 3e 55 19 7b bc 77 e5 56 be 73 c4 c2 be
       0.48908812 -0.015325864 -0.20985971 -0.38040504
000070 b1 cb 06 bf f1 c6 0a bf b5 3c c7 be 05 14 46 bf
       -0.5265456 -0.5420981 -0.38913503 -0.773743
000080 cb d4 35 bf 4a a7 10 bf 86 8d 3c bf 67 bc 2d bf
       -0.7102782 -0.5650526 -0.7365345 -0.67865604
000090 1e 18 e1 be 33 cd ac 3c d3 89 f0 3e 57 b3 3f 3f
       -0.43963712 0.02109394 0.46980152 0.74883026
0000a0 a6 e9 6b 3f 17 3e 89 3f 81 18 87 3f 60 c0 dc 3e
       0.92153394 1.0722073 1.0554353 0.4311552
0000b0 22 c0 54 3d bc 4a 1d bd 00 d2 43 be b5 ce d4 be
       0.051941045 -0.03840135 -0.19123077 -0.41563955
0000c0 95 62 02 bf eb 52 c0 be 9c 43 8c be bc b0 08 bd
       -0.50931674 -0.3756326 -0.27395332 -0.033371672
0000d0 c4 25 4b 3e 13 d2 82 3e ad f6 c5 3e 84 97 ec 3e
       0.19838625 0.255509 0.3866476 0.46209347
0000e0 86 7b bc 3e ef 85 ee 3e b7 7e 85 3e 66 20 03 3e
       0.3681299 0.46586558 0.26073238 0.12805328
0000f0 09 ec ee bd bc 38 7b 3d 9e c9 09 3e de ab 33 3e
       -0.11666114 0.061333403 0.13455817 0.17546031
000100 0f b1 87 3e c4 67 f6 3d cd 24 f9 3e 15 fb ee 3e
       0.26502272 0.120315105 0.4866089 0.46675935
000110 da 8e e2 3e 64 c1 90 3e de f5 ed 3b 00 58 6b 3d
       0.44249612 0.28272545 0.0072619757 0.05745697
000120 3c 6b df 3d 95 91 16 3e c4 ff e0 bd fc d3 0b be
       0.10909125 0.14703973 -0.109862834 -0.13655084
000130 cd 6c 3c bd 55 49 65 be 4d 9e 2c be d5 4c 9c be
       -0.046002198 -0.22391255 -0.16857262 -0.30527368
000140 a2 c7 af be d5 67 a7 be d5 db d7 bd 0d 0e 2a 3e
       -0.34331995 -0.32696405 -0.105399765 0.16606922
000150 0d 31 28 3e 31 a0 09 3f 62 7f 79 3e ba 78 80 3e
       0.16424961 0.5376006 0.24364999 0.25092107
000160 5e 5f ee 3d 95 60 5f be 17 87 2e bf 0c 74 52 bf
       0.116392836 -0.21814187 -0.6817488 -0.82208323
000170 3a f5 08 bf 29 20 e1 be c4 13 0f be ab a2 44 be
       -0.53499186 -0.4396985 -0.13972384 -0.19202678
000180 57 2f 70 bf a8 4d 03 c0 f3 73 49 c0 13 52 8d c0
       -0.93822235 -2.0516148 -3.147702 -4.416269
000190 c5 66 99 c0 ed e3 a1 c0 9f 8c ac c0 60 cc b5 c0
       -4.793795 -5.059073 -5.3921657 -5.681198
0001a0 1d 65 91 c0 b7 55 1e c0 33 99 fc 3e b9 d0 64 40
       -4.543593 -2.4739816 0.49335632 3.5752394
0001b0 9a e0 af 40 81 45 f0 40 75 6c 00 41 10 11 e2 40
       5.496167 7.5084844 8.026479 7.064583
0001c0 50 02 90 40 ae 6f e8 3f d5 7b af 3d a9 5a f9 be
       4.5002823 1.8159082 0.08568541 -0.4870198
0001d0 ef f2 31 bd 2f a0 11 3f ab d8 c7 3f 2b 38 08 40
       -0.04344457 0.56885046 1.5612997 2.1284282
0001e0 73 6f 12 40 5a 13 10 40 1c 97 fe 3f 76 a4 ac 3f
       2.2880523 2.2511811 1.9889865 1.348769
0001f0 f5 7b 31 3f 7c 15 6a 3e 00 f3 68 3d c4 2c 07 3e
       0.6932977 0.22859758 0.056872368 0.1320067
000200 be ef cf be 51 bf c4 be 0b 04 dc be e6 50 e3 bd
       -0.40612596 -0.38427213 -0.42971835 -0.110994145
000210 04 06 7b be 24 28 b0 be 77 7e d8 be 54 6a 09 bf
       -0.24514014 -0.34405625 -0.42283985 -0.5367787
000220 90 c6 2b bf 1d af ba bf 16 37 0a c0 97 5c 5d c0
       -0.6709986 -1.458469 -2.1596122 -3.4587762
000230 05 74 80 c0 a1 e5 91 c0 c1 0f 88 c0 fb 3a ff bf
       -4.0141625 -4.559281 -4.251923 -1.9939874
000240 ec 66 0b 3f 9d b5 20 40 57 b0 7d 40 0d ac 96 40
       0.5445392 2.5110848 3.963888 4.7085023
000250 fe 59 8a 40 b7 e2 5b 40 cc 38 cb 3f 9e 85 12 be
       4.3234854 3.4357126 1.5876708 -0.14308783
000260 5a d0 ae be 11 48 8b 3d 24 dc c6 3e 22 ae d5 3e
       -0.34143335 0.06800855 0.3883983 0.41734415
000270 37 25 46 3e da fa 88 be 03 a0 b9 bf 59 b8 4c c0
       0.19350134 -0.26753885 -1.4501957 -3.1987517
000280 1e e2 9f c0 58 fd cc c0 de 97 cf c0 0e 9c a5 c0
       -4.996352 -6.4059258 -6.4872885 -5.1752996
000290 2b bd 2c c0 44 f6 67 3e 14 12 35 40 61 7e 92 40
       -2.699046 0.22652537 2.8292284 4.577927
0002a0 bf 9d a1 40 f0 f7 91 40 67 78 33 40 39 53 a8 3f
       5.050506 4.561516 2.8042238 1.3150398
0002b0 cd 44 54 be 27 c8 4d bf 0f ad 2d bf 3c 2b 3a bf
       -0.2072937 -0.80383533 -0.6784219 -0.7272222
0002c0 c6 a6 c7 be 7e b2 95 be a6 fe 3c 3e 2b ce 8f 3e
       -0.38994426 -0.2923774 0.18456516 0.2808698
0002d0 b1 cb dd 3e 0d 3c 05 3e d5 5c 1b be 44 ca 4d bd
       0.43319467 0.13011189 -0.15172131 -0.050241724
0002e0 80 a6 f5 be 25 03 81 bf 90 11 89 c0 44 71 d1 c0
       -0.47978592 -1.0079085 -4.283394 -6.5450764
0002f0 3f 82 ee c0 f1 42 cd c0 11 bc 3a c0 b7 5f 0b 3f
       -7.453399 -6.4144216 -2.9177287 0.54442924
000300 42 7e 7f 40 ce 58 d9 40 10 06 08 41 2c 31 e0 40
       3.9920812 6.7920904 8.50148 7.0060024
000310 17 af 97 40 dd 8a 00 40 00 cc f9 bd c4 fc a8 bd
       4.7401233 2.0084755 -0.12197113 -0.08251336
000320 5e a8 6c 3e 74 4c 3e 3f 65 37 52 3f 96 11 36 3f
       0.23111102 0.7433541 0.82115775 0.71120584
000330 64 94 38 3f 76 86 4d 3f 7a ec 4b 3f 2a 58 02 3f
       0.72101426 0.80283296 0.7965771 0.5091578
000340 22 56 9e bd 53 10 ae bf f8 17 35 c0 7a 39 b7 c0
       -0.07731272 -1.3598732 -2.829588 -5.725766
000350 83 e3 fc c0 de 92 20 c1 10 d6 38 c1 ce 4a 39 c1
       -7.9027724 -10.035856 -11.552261 -11.580763
000360 81 36 20 c1 a3 a1 03 c1 bf 3e 9f c0 22 03 e1 bf
       -10.013307 -8.226962 -4.9764094 -1.7579081
000370 51 ea 5d bf 11 ec 31 be cd b7 48 bf 51 cd 04 c0
       -0.86685663 -0.17375208 -0.7840546 -2.0750315
000380 14 ee 54 c0 94 13 6f c0 cb b5 99 c0 05 eb 9c c0
       -3.3270311 -3.73557 -4.8034415 -4.903689
000390 ff 7e 8b c0 6e 5c a2 c0 02 e3 af c0 27 5c c4 c0
       -4.3592525 -5.073783 -5.496461 -6.136249
0003a0 40 c5 d7 bf 13 37 74 40 e3 87 28 41 21 df 81 41
       -1.6857071 3.8158615 10.533175 16.23395
0003b0 05 ca a3 41 70 b2 ac 41 4e e8 9c 41 08 3c 66 41
       20.473642 21.587128 19.61343 14.389656
0003c0 4b 7b c5 40 db 88 ef 3f 2a 7c 7f bf 41 1b fc bf
       6.1713004 1.871364 -0.99798834 -1.9695817
0003d0 f7 d1 44 c0 e2 18 18 c0 33 94 30 c0 ad 80 24 c0
       -3.0753152 -2.3765187 -2.7590454 -2.5703537
0003e0 c6 08 24 c0 1e 46 56 c0 47 44 2f c0 75 3a c7 bf
       -2.5630355 -3.3480296 -2.7385423 -1.5564715
0003f0 e6 3c 04 be 5e 06 5a be 26 e5 a6 3e 07 aa b9 3f
       -0.12913856 -0.21291491 0.325967 1.4505013
