wav_resampled16kHz/train/mfcc_delta/McE_FlutePlayersRoscommonVol1_Tk2Tu2R1_TheSandMount.npy (npy, 146448 bytes, 1 tensors)

array (column-major) f4 [1829, 20]
-1.8220158 -1.8220158 -1.8220158 -1.8220158 -1.8220158 -0.3149989 1.0333076 2.5205958
3.5934594 3.6116254 3.3959842 2.638487 1.2602674 -1.3641638 -4.0525393 -5.6931963
-6.7568502 -6.289115 -5.544308 -3.7548423 -0.6563192 1.6736642 2.600321 2.6240191
2.514659 1.0543135 -0.18766467 -1.3179289 -1.7830871 -0.62060523 -0.10992088 0.31941554
0.2749654 1.4318416 0.9819561 0.82449377 1.0086952 1.0762465 1.2947369 0.99600285
-0.029852422 -1.6178927 -1.987652 -4.1352143 -5.51106 -5.1202526 -4.632294 -4.2882338
-2.3739665 -1.0186856 0.5733972 2.4917455 3.3172922 2.8605077 2.5824807 2.3885777
1.4835563 1.4158745 1.3016391 1.621702 2.5369654 3.1258893 3.4393086 3.3328738
2.6895173 2.1768703 2.0602775 1.7270871 1.4953269 1.0557293 -0.21775156 -0.9400144
-0.97733015 -2.0576558 -2.8342493 -2.2671123 -1.4286075 -0.090983585 1.13612 1.9789472
2.907736 3.192739 2.8571737 1.8899969 0.54235613 -0.21113409 -0.95140916 -1.7395728
-2.3036544 -2.3467615 -2.3457448 -2.4567363 -1.4687043 -0.80681175 -0.14334945 0.6967972
0.89467186 0.68438786 0.5167675 0.5174619 -0.49109688 -0.38820088 -0.21953227 -0.79493624
-0.68621534 -1.0314505 -0.8953135 0.03518753 0.35464972 0.6868846 1.3691211 1.9144711
1.7279017 2.0743072 1.6562176 1.3799559 1.5701576 0.7575457 -0.47152722 -0.67663157
-0.54687756 -0.7589198 -0.56603116 -0.5900127 -0.47375768 -0.14119822 -0.2172568 -0.74763745
-0.55842936 0.22504832 0.81955975 1.1373159 0.97002566 1.4061366 1.4816188 1.3659104
1.5194325 1.7423487 1.9522613 2.152448 1.4284827 -0.49454206 -1.739625 -3.346034
-4.5668693 -4.936912 -4.193981 -3.3081853 -1.483809 0.108789064 0.62767994 -0.08821322
-0.106127806 -0.93901306 -1.5166185 -2.039089 -2.204953 -2.1011546 -2.0530548 -1.4277674
-1.7048173 -1.1335576 -0.6877759 -0.32039464 -0.9141084 -0.932358 -0.23611489 0.17136917
1.0982858 2.3915553 2.957271 3.664811 3.650288 2.803032 1.6295561 1.0380949
1.360323 1.8444579 2.613791 3.022707 2.9304197 2.4674923 1.5173738 0.34719428
-0.89224154 -1.7564411 -2.6400046 -4.245496 -4.708774 -4.384519 -3.601954 -2.0172756
0.6503699 3.019615 4.8573494 5.4069095 4.4026313 2.489707 1.1407264 -1.1168501
-3.1624072 -3.258189 -2.815412 -1.7819737 -1.7549593 -0.81765926 -0.84740794 0.26309714
0.3302223 -0.39009845 -0.3681933 -0.31078693 -0.036467742 -0.77427316 -0.73870355 -1.2858425
-1.1296463 -1.751603 -1.6163056 -0.34843102 0.8347261 1.8207917 2.6909077 3.4171267
3.720437 3.5504632 2.447779 1.2822461 0.5623472 -0.005057526 -0.65035886 -0.7162866
-1.0745175 -0.7237643 0.17146607 1.8532468 3.167192 4.3068786 4.3429894 1.8809435
-1.6486089 -5.886586 -8.560751 -9.646521 -8.960631 -7.29504 -4.2598457 -1.3127499
0.26835862 0.28307775 -1.361772 -2.011649 -2.3894765 -2.7010655 -3.2960246 -4.120184
00000000: d037 e9bf d037 e9bf d037 e9bf d037 e9bf
00000010: d037 e9bf 8947 a1be 6c43 843f 7151 2140
00000020: 3dfb 6540 df24 6740 ce57 5940 f9dc 2840
00000030: 7150 a13f eb9c aebf 67ae 81c0 aa2e b6c0
00000040: 1e38 d8c0 6e40 c9c0 f96a b1c0 564f 70c0
00000050: 8904 28bf a13a d63f a96b 2640 eeef 2740
00000060: 2cf0 2040 bff3 863f 2b2b 40be e5b1 a8bf
00000070: 333c e4bf fcdf 1ebf 331e e1bd 6f8a a33e
00000080: 44c8 8c3e 9646 b73f 7a61 7b3f 0612 533f
00000090: ed1c 813f 72c2 893f f0b9 a53f 0bfa 7e3f
000000a0: 118d f4bc 1c17 cfbf 616b febf ad53 84c0
000000b0: 9b5a b0c0 1cd9 a3c0 c13b 94c0 3639 89c0
000000c0: 11ef 17c0 4a64 82bf 29ca 123f c278 1f40
000000d0: 844e 5440 8f12 3740 5d47 2540 75de 1840
000000e0: 2ce5 bd3f 603b b53f 1c9c a63f ee93 cf3f
000000f0: a45d 2240 920e 4840 a21d 5c40 ce4d 5540
00000100: 0d21 2c40 d851 0b40 96db 0340 3111 dd3f
00000110: df66 bf3f 2322 873f 44fa 5ebe c9a4 70bf
00000120: 4f32 7abf a2b0 03c0 5764 35c0 5e18 11c0
00000130: 9cdc b6bf 9a55 babd 616c 913f 244e fd3f
00000140: 5918 3a40 d655 4c40 efdb 3640 6beb f13f
00000150: dad7 0a3f 8933 58be 8d8f 73bf 52aa debf
00000160: 136f 13c0 5731 16c0 af20 16c0 2b3b 1dc0
00000170: 81fe bbbf 378b 4ebf 33ca 12be 4d61 323f
00000180: 3709 653f 0b34 2f3f e04a 043f 6278 043f
00000190: 0d71 fbbe 44c2 c6be 11cd 60be f180 4bbf
000001a0: cfab 2fbf 9206 84bf 4433 65bf cd20 103d
000001b0: a694 b53e abd7 2f3f 5c3f af3f 640d f53f
000001c0: e22b dd3f 73c1 0440 f0fe d33f 65a2 b03f
000001d0: edfa c83f 84ee 413f 046c f1be ba37 2dbf
000001e0: 2b00 0cbf 9148 42bf 6be7 10bf 130b 17bf
000001f0: 5e90 f2be 4496 10be 9178 5ebe 2b65 3fbf
00000200: 3af5 0ebf 1173 663e abce 513f 9193 913f
00000210: 9a53 783f 49fc b33f afa5 bd3f 27d6 ae3f
00000220: c47c c23f 4805 df3f b3e3 f93f b5c1 0940
00000230: 85d8 b63f 9e34 fdbe 08ac debf 6c25 56c0
00000240: cb23 92c0 2ffb 9dc0 1835 86c0 4fb9 53c0
00000250: 74ed bdbf cdcc de3d a2af 203f 22a9 b4bd
00000260: 8959 d9bd 2963 70bf 8e20 c2bf 6f80 02c0
00000270: f31d 0dc0 5179 06c0 4065 03c0 15c1 b6bf
00000280: 7437 dabf 6a18 91bf 1512 30bf c40a a4be
00000290: 0203 6abf 04af 6ebf 1ac8 71be 667b 2f3e
000002a0: a194 8c3f 3e0f 1940 ee43 3d40 438c 6a40
000002b0: 529e 6940 e064 3340 4b95 d03f 4be0 843f
000002c0: 101f ae3f 3217 ec3f 5a48 2740 0874 4140
000002d0: ff8b 3b40 65eb 1d40 4e39 c23f 73c3 b13e
000002e0: f169 64bf 10d3 e0bf d6f5 28c0 1adb 87c0
000002f0: 47ae 96c0 fb4d 8cc0 6a86 66c0 0b1b 01c0
00000300: a47e 263f 5f41 4140 686f 9b40 6705 ad40
00000310: 5be2 8c40 5c57 1f40 5303 923f f2f4 8ebf
00000320: e164 4ac0 2b86 50c0 b62f 34c0 b717 e4bf
00000330: 82a2 e0bf 1e52 51bf baef 58bf abb4 863e
00000340: e612 a93e fcba c7be d583 bcbe 771f 9fbe
00000350: 335f 15bd c436 46bf ad1b 3dbf 7d96 a4bf
00000360: 4098 90bf 8734 e0bf 1ae3 cebf 8d65 b2be
00000370: 9cb0 553f b40f e93f d537 2c40 34b2 5a40
00000380: a41b 6e40 ca3a 6340 69a8 1c40 a420 a43f
00000390: fcf5 0f3f 9ab9 a5bb eb7d 26bf 8f5e 37bf
000003a0: ca89 89bf 9e48 39bf cd94 2f3e 3137 ed3f
000003b0: 46b3 4a40 f3d1 8940 c5f9 8a40 c2c2 f03f
000003c0: 9e05 d3bf ea5e bcc0 d6f8 08c1 2658 1ac1
000003d0: bf5e 0fc1 f870 e9c0 a850 88c0 3008 a8bf
000003e0: 4d66 893e 91ef 903e 8b4e aebf dbbe 00c0
000003f0: 2fed 18c0 42de 2cc0 11f2 52c0 8cd8 83c0
