wav_resampled16kHz/train/mfcc_delta/McE_FlutePlayersRoscommonVol1_Tk2Tu1R1_CrehansKitchen.npy (npy, 157568 bytes, 1 tensors)

array (column-major) f4 [1968, 20]
1.0900645 1.0900645 1.0900645 1.0900645 1.0900645 1.2171631 1.2130457 1.165979
0.9363617 0.70039314 1.3152192 5.74365 10.783643 15.456665 19.422262 22.798943
26.36515 27.132603 24.789583 19.179995 14.868375 11.716294 7.493596 3.568718
0.17132899 -0.3722919 -0.4514076 -0.2940548 -0.78228986 -2.0763118 -1.8589642 -1.7011167
-1.2495098 -0.94432056 -0.28587544 0.13151716 0.17593892 -0.2590084 -0.7531835 -0.826989
-1.2350775 -0.5287985 0.01739502 0.97611845 1.6294596 1.9161165 1.7759672 1.6243759
1.3862469 0.2970993 0.17139257 -0.17065315 -0.45895654 -0.92924154 -1.5262235 -1.5435264
-1.3834492 -1.0624888 -0.92943394 -0.4248862 -0.02364998 -0.07725474 0.47084147 -0.01552887
0.36932155 1.0087183 1.6740234 2.000646 2.4124532 2.897567 2.6611388 3.0286481
2.28382 1.7706281 1.053447 0.5889752 -0.24466814 -1.303206 -1.876274 -2.3468854
-2.338556 -2.010077 -1.6090003 -1.388083 -0.67978513 -0.4193494 -0.53892744 -0.7296366
-1.2566073 -1.3837998 -1.4268721 -0.93447125 -0.6047442 -0.08767802 0.31090075 0.77397245
0.63384885 0.64931995 0.6663464 0.5062163 0.81891096 0.6906264 0.6757128 0.5367353
0.6114457 -0.08078715 -0.17114219 -0.07859853 0.39077455 0.8255604 0.81937623 0.94518965
0.94410145 0.48346648 0.0741848 -1.0055497 -1.6696384 -1.7660277 -2.3253968 -3.5743015
-5.733295 -7.165749 -7.0496616 -4.8147893 -2.1608202 0.9852139 3.716606 6.0406713
7.14532 5.788936 3.4995852 1.1684659 0.1478297 -0.535834 -1.0283425 -2.0296159
-2.4921227 -2.0239725 -1.3382472 -0.3401863 0.27769253 1.5341831 2.37953 2.7091103
1.9724582 0.7574702 0.00027987163 -0.65938735 -1.2619245 -1.6354798 -1.8307635 -1.6192307
-0.94158477 -0.8277462 -0.6201118 -0.44523075 -0.0913208 -0.0855929 0.32643268 0.6949748
1.103772 1.5109905 1.8471807 2.121186 2.0817564 2.0282469 1.5516568 0.79473823
0.12230758 -0.43250707 -0.93319476 -0.72411436 -0.6956226 0.16726379 0.38745028 0.52575964
0.33776093 0.03481649 -0.10501175 0.29054844 0.85159695 0.9182865 1.4593375 1.1396027
0.8646852 0.08507054 -0.43876866 -0.5302621 0.09624316 0.74957436 0.90509146 1.000479
0.6037848 0.78655285 0.27032796 -0.18862209 -0.28869992 -0.4216437 -0.50887 -0.8076267
-1.1687462 -1.5299946 -1.4127754 -1.7488542 -2.1837978 -2.2690933 -2.465877 -2.7874205
-2.4197123 -1.9399986 -1.35526 -0.6082535 -0.14240304 0.24995714 0.39080492 0.24534455
-0.17923966 -0.35762456 -0.24957848 -0.39575666 -0.6067618 -0.37200138 0.93587315 1.2997712
1.5402745 1.6992015 2.1615822 2.287995 2.0932715 1.301484 0.58513415 0.74740845
0.5074342 -0.091134645 -0.62560856 -0.5909359 -0.7639566 -0.8900182 -0.6257643 -0.112308756
0.42948672 1.1284992 0.8399123 0.05500857 -1.1767167 -2.8709073 -4.7406974 -5.4359956
-5.103141 -3.9707901 -1.8387725 -0.30324998 1.5821277 3.2193282 3.9715278 4.180327
00000000: 3c87 8b3f 3c87 8b3f 3c87 8b3f 3c87 8b3f
00000010: 3c87 8b3f 00cc 9b3f 1545 9b3f cd3e 953f
00000020: 66b5 6f3f f74c 333f 1a59 a83f fbcb b740
00000030: cd89 2c41 804e 7741 cb60 9b41 3c64 b641
00000040: d4eb d241 920f d941 1151 c641 a170 9941
00000050: dde4 6d41 f175 3b41 8acb ef40 e065 6440
00000060: de70 2f3e 0b9d bebe e61e e7be 5a8e 96be
00000070: 2644 48bf 4be2 04c0 8af2 edbf 31be d9bf
00000080: f0ef 9fbf febe 71bf 445e 92be 6fac 063e
00000090: 5529 343e c09c 84be a2d0 40bf 8db5 53bf
000000a0: 0517 9ebf 575f 07bf 0080 8e3c e6e2 793f
000000b0: 2292 d03f 4e43 f53f e552 e33f 8deb cf3f
000000c0: 8a70 b13f 661d 983e 8981 2f3e b3bf 2ebe
000000d0: 5afc eabe c6e2 6dbf 4b5b c3bf 4692 c5bf
000000e0: dd14 b1bf a2ff 87bf 62ef 6dbf af8a d9be
000000f0: 9abd c1bc bc37 9ebd 2212 f13e cd6c 7ebc
00000100: b717 bd3e ae1d 813f 6646 d63f 960a 0040
00000110: a265 1a40 bd71 3940 1950 2a40 5fd5 4140
00000120: 1b2a 1240 f1a3 e23f 5ad7 863f 14c7 163f
00000130: 498a 7abe 74cf a6bf bf29 f0bf 5f33 16c0
00000140: e7aa 15c0 1aa5 00c0 b9f3 cdbf b4ac b1bf
00000150: 6606 2ebf f7b4 d6be 26f7 09bf 77c9 3abf
00000160: 82d8 a0bf 5a20 b1bf bfa3 b6bf 8239 6fbf
00000170: 84d0 1abf 8990 b3bd 622e 9f3e 0f23 463f
00000180: eb43 223f d539 263f ad95 2a3f 6497 013f
00000190: 26a4 513f e4cc 303f 84fb 2c3f 7c67 093f
000001a0: b587 1c3f bc73 a5bd e63f 2fbe 44f8 a0bd
000001b0: 9a13 c83e ed57 533f a4c2 513f f3f7 713f
000001c0: a2b0 713f eb88 f73e 33ee 973d dab5 80bf
000001d0: b6b6 d5bf 320d e2bf 4dd3 14c0 5bc1 64c0
000001e0: 2777 b7c0 d14d e5c0 d496 e1c0 c112 9ac0
000001f0: e14a 0ac0 fa36 7c3f dfdc 6d40 2e4d c140
00000200: 76a6 e440 f73e b940 34f9 5f40 4a90 953f
00000210: ab60 173e 6b2c 09bf baa0 83bf 3ae5 01c0
00000220: f07e 1fc0 c488 01c0 af4b abbf e62c aebe
00000230: b72d 8e3e 1d60 c43f 384a 1840 1062 2d40
00000240: 8379 fc3f 91e9 413f bcbb 9239 9ccd 28bf
00000250: be86 a1bf 6757 d1bf 7556 eabf f442 cfbf
00000260: b30b 71bf 2de7 53bf a6bf 1ebf 49f5 e3be
00000270: 6606 bbbd 554b afbd 2f22 a73e dee9 313f
00000280: 6748 8d3f 2368 c13f 6b70 ec3f 83c1 0740
00000290: 7f3b 0540 ccce 0140 b19c c63f f773 4b3f
000002a0: 667c fa3d 9171 ddbe dae5 6ebf 8f5f 39bf
000002b0: 5314 32bf 3347 2b3e e25f c63e 2f98 063f
000002c0: 00ef ac3e bc9b 0e3d 6610 d7bd c4c2 943e
000002d0: 4202 5a3f d314 6b3f 92cb ba3f 80de 913f
000002e0: 025c 5d3f 7739 ae3d 49a6 e0be 42bf 07bf
000002f0: 221b c53d 1be4 3f3f 13b4 673f b20f 803f
00000300: a491 1a3f 875b 493f 6d68 8a3e 2626 41be
00000310: 7ad0 93be afe1 d7be 4e45 02bf a0c0 4ebf
00000320: 7a99 95bf ddd6 c3bf d3d5 b4bf 74da dfbf
00000330: 58c3 0bc0 d338 11c0 eed0 1dc0 1965 32c0
00000340: 91dc 1ac0 e051 f8bf 2979 adbf 80b6 1bbf
00000350: 1ad2 11be c4f4 7f3e 9517 c83e 9a3b 7b3e
00000360: 9a8a 37be 911a b7be 8091 7fbe 9ea0 cabe
00000370: be54 1bbf f776 bebe 6295 6f3f e75e a63f
00000380: b727 c53f 6f7f d93f 5d57 0a40 836e 1240
00000390: 29f8 0540 0797 a63f 5acb 153f 2956 3f3f
000003a0: 35e7 013f cda4 babd e227 20bf 9347 17bf
000003b0: a992 43bf 3cd8 63bf 1732 20bf 2202 e6bd
000003c0: afe5 db3e a972 903f 7e04 573f ab50 613d
000003d0: a79e 96bf f2bc 37c0 cbb3 97c0 adf3 adc0
000003e0: ee4c a3c0 6d21 7ec0 e65c ebbf 9543 9bbe
000003f0: 2983 ca3f 7909 4e40 832d 7e40 3dc5 8540
