wav_resampled16kHz/train/mfcc_delta/McE_FlutePlayersRoscommonVol1_Tk2Tu3R1_Mulvihills.npy (npy, 145568 bytes, 1 tensors)

array (column-major) f4 [1818, 20]
000000 22 e6 03 3d 22 e6 03 3d 22 e6 03 3d 22 e6 03 3d
       0.032201894 0.032201894 0.032201894 0.032201894
000010 22 e6 03 3d 00 23 0e 3f 15 80 37 3f 3c 3d 06 3e
       0.032201894 0.55522156 0.7167981 0.13109297
000020 d1 65 fb be f1 14 18 bf bc b2 b9 bd 09 c4 be 3e
       -0.49101117 -0.59406954 -0.09067294 0.37258938
000030 e6 eb 05 3f 64 f3 19 3f 9e 0c e9 3e a4 45 2b 3f
       0.5231308 0.6013701 0.4551744 0.6690314
000040 00 94 dc 3d 51 28 6d bf 7c 01 89 bf 55 ec 70 be
       0.10770416 -0.9263964 -1.0703578 -0.23527654
000050 6b e6 e3 3e 44 68 1e bd 9a 3f 75 bf 60 e5 63 bf
       0.44511732 -0.038673654 -0.95800173 -0.89021873
000060 44 07 b6 be c4 33 9a 3e ba 81 68 3f d4 cd f4 3f
       -0.35552418 0.3011762 0.9082295 1.9125314
000070 5b bf 4a 40 ed 64 87 40 66 92 6e 40 b6 37 01 40
       3.1679294 4.23107 3.7276855 2.0190253
000080 da 5d a3 3f d0 e0 11 3f 09 41 85 bd 16 7a 44 bf
       1.2763016 0.5698366 -0.06506545 -0.7674879
000090 b2 06 30 bf 84 8d 39 bf d6 a4 2d bf a1 78 3a bf
       -0.68760216 -0.7248156 -0.67829645 -0.72840315
0000a0 5a 28 ac bf 19 80 d7 bf 72 cb fb bf 92 ad eb bf
       -1.3449814 -1.6835967 -1.9671462 -1.8412344
0000b0 20 04 09 c0 59 3e 19 c0 2d 16 0a c0 3d d1 fe bf
       -2.1408768 -2.3944304 -2.1576035 -1.9907604
0000c0 41 26 87 bf 1b ed 96 bf 4a 26 bb bf 9f b6 b3 bf
       -1.0558549 -1.1791109 -1.462106 -1.4040107
0000d0 a9 ca b7 bf aa 81 8d bf 93 2e dd bf fa 73 ce bf
       -1.4358722 -1.1055195 -1.7279838 -1.6129143
0000e0 44 66 c8 bf c4 cf 89 bf 61 ac a1 bf ec 38 b1 bf
       -1.5656209 -1.076653 -1.2630731 -1.3845496
0000f0 29 6c 9d bf 41 3c a7 bf 11 5e 4d bf 8f 92 01 bf
       -1.2298633 -1.3065263 -0.8022166 -0.50614256
000100 80 59 03 be d2 c0 81 3f 8c 4b f5 3f f7 8c 25 40
       -0.1282711 1.0136969 1.916368 2.5867288
000110 db 2b 55 40 cc c2 50 40 e1 8a 48 40 d3 09 22 40
       3.3308017 3.2618895 3.1334765 2.5318496
000120 2c b5 e1 3f 04 17 d4 3e 07 e3 ec bf ea b7 92 c0
       1.7633414 0.4142381 -1.8506783 -4.5849504
000130 d1 9d e6 c0 cb 4a ff c0 c5 8e f7 c0 2a 6d a3 c0
       -7.2067647 -7.97788 -7.736178 -5.1070757
000140 c5 f6 8e bf fa 04 47 40 b7 e6 d6 40 68 bc 04 41
       -1.1169058 3.1096787 6.7156634 8.295998
000150 f8 0c f3 40 6f 4a ac 40 94 76 33 40 71 b0 06 3f
       7.595333 5.384086 2.8041124 0.5261298
000160 24 a9 6d bf 33 6f 3c bf 66 be 8f bd 17 5e 09 3f
       -0.92836213 -0.73607177 -0.070187375 0.53659195
000170 06 c3 79 3f 75 e2 b3 3f 8d ae c1 3f b1 f2 9e 3f
       0.9756321 1.4053484 1.5131394 1.2417814
000180 f7 f3 44 3f 3a d5 52 bf dd 98 cd bf aa d6 1d c0
       0.7693476 -0.8235661 -1.6062275 -2.466227
000190 c4 c2 45 c0 d9 6d 93 c0 19 a8 89 c0 ee 8e 5d c0
       -3.0900126 -4.607159 -4.3017697 -3.4618487
0001a0 67 14 48 c0 31 74 02 c0 4e 10 c1 bf b7 38 b7 be
       -3.1262453 -2.0383418 -1.5083101 -0.35785457
0001b0 db 67 99 3f 24 06 21 40 b2 07 17 40 45 53 1d 40
       1.1984819 2.5159998 2.3598447 2.4582074
0001c0 ec 10 38 40 42 16 03 40 99 5a b0 3f 77 32 6c 3e
       2.8760328 2.0482335 1.3777648 0.23066126
0001d0 b3 17 29 bf 8b 14 44 bf 7f 9c ce bf 9b e4 d2 bf
       -0.6605179 -0.76593846 -1.6141509 -1.6476015
0001e0 61 84 a4 bf cd d3 15 bf 49 29 b9 3e b3 ce 74 3f
       -1.2852899 -0.5852631 0.3616431 0.956279
0001f0 3b 33 a6 3f 13 e2 af 3f cc d3 b2 3f 44 89 8c 3d
       1.2984384 1.3740867 1.3970885 0.06862119
000200 75 e8 c7 bf ba 58 30 c0 15 28 5f c0 22 ec 78 c0
       -1.5617815 -2.7554154 -3.4868214 -3.8894124
000210 76 18 70 c0 44 0f 22 c0 b2 f4 b9 bf bc 3f 9b bd
       -3.751493 -2.5321817 -1.45278 -0.07580516
000220 01 26 a8 3f 9f a0 06 40 14 b5 38 40 53 e8 42 40
       1.3136598 2.1035535 2.8860521 3.04543
000230 ab f7 2a 40 04 7e 11 40 6a d2 f2 3f d4 a7 8b 3f
       2.6713665 2.2733164 1.8970463 1.0910592
000240 77 37 28 3c 44 18 1d bf 62 87 65 bf 5e 3e 5a bf
       0.01026713 -0.6136515 -0.896597 -0.85251415
000250 77 74 d1 bd 9e ac 35 3f 45 b5 eb 3f 39 78 33 40
       -0.10227292 0.7096652 1.8414694 2.8042128
000260 55 69 39 40 ec ad 16 40 8f 10 09 40 a2 2c b5 3f
       2.897054 2.3543653 2.1416357 1.4154246
000270 cd 5a bd 3d 09 b2 f6 be 4d 8a 61 bf d5 44 4e bf
       0.092458345 -0.48182705 -0.88101655 -0.8057378
000280 6b 06 a7 bf 51 00 01 c0 d4 e9 f7 bf ca 0f bf bf
       -1.3048834 -2.0156443 -1.9368234 -1.4926693
000290 dc d6 5c bf 44 cc d3 be 66 b0 3b be b3 7d 3f 3e
       -0.8626535 -0.4136678 -0.1832901 0.18700294
0002a0 4f c8 7a 3f 31 98 4e 3f 11 5f 4b 3d a2 55 29 be
       0.97961897 0.80700976 0.04965121 -0.16536573
0002b0 60 59 4f bf 24 00 1d bf 11 41 98 bd 3a 35 14 3f
       -0.8099575 -0.6132834 -0.074342854 0.5789372
0002c0 ad f1 a6 3f 79 76 26 40 e3 07 51 40 7c b2 62 40
       1.3042504 2.600981 3.2661064 3.5421438
0002d0 e7 90 23 40 1c a6 b9 3f a1 b7 02 3f 2b 12 b2 be
       2.5557191 1.4503818 0.51061445 -0.34779486
0002e0 e1 a3 82 bf a2 9d ca bf 11 45 8c bf b5 7a 6c bf
       -1.0206262 -1.5829356 -1.0958577 -0.92374736
0002f0 37 6f b9 be d5 97 df be de 8f 7a bd a6 1f 50 3f
       -0.36217663 -0.43670526 -0.06117236 0.8129829
000300 a9 c4 ea 3f 59 49 0a 40 bb c1 0d 40 64 24 f2 3f
       1.8341266 2.1607268 2.2149494 1.8917356
000310 91 c4 c9 3f e4 25 62 3f b3 fc b2 3e 09 5f 2b be
       1.5763112 0.88339067 0.3495842 -0.16735472
000320 e2 c1 fd be ed 33 a9 be 91 12 fa be 15 59 8b be
       -0.49561983 -0.3304743 -0.4884229 -0.27216402
000330 5a 7c bc be 1e 6c 08 bf 4f a1 49 bf 5a 04 4e bf
       -0.36813623 -0.53289974 -0.7876176 -0.8047539
000340 35 20 58 bf 7c 47 67 bf 61 2e a1 bf 8f b8 b0 bf
       -0.84424144 -0.9034345 -1.2592279 -1.3806323
000350 ef cd c1 bf ac c4 e3 bf 52 f5 14 c0 d9 52 11 c0
       -1.5140971 -1.7794394 -2.3274732 -2.2706816
000360 0f fd e4 bf 35 1b 98 bf 8d 42 bd be ef 8d e5 3e
       -1.7889727 -1.1883303 -0.36964837 0.4483485
000370 87 1e 9f 3f 77 9a ce 3f 01 a6 80 3f f3 18 9f 3e
       1.2431191 1.6140889 1.005066 0.31073722
000380 6f 0c 49 3f 3e 26 5d 3f eb 64 8c 3f de 97 a3 3f
       0.785346 0.8638648 1.0968298 1.2780721
000390 52 9d c7 3f 25 30 be 3f 13 33 51 3f 8d d6 55 bf
       1.5594885 1.4858443 0.8171856 -0.83530504
0003a0 14 38 a8 bf 45 d1 b8 bf 75 7f 7e bf f3 47 e0 3e
       -1.3142114 -1.4438864 -0.99413234 0.43804893
0003b0 ef d4 d9 3f 01 44 26 40 23 98 37 40 73 b9 e0 3f
       1.7018107 2.5979006 2.8686607 1.7556595
0003c0 bc 03 bd bc ee 03 6e bf 4b f0 28 c0 4e 23 70 c0
       -0.02307307 -0.92974746 -2.6396663 -3.7521548
0003d0 49 8c 5e c0 9a c1 19 c0 01 b4 8b bf 4d be 24 3e
       -3.4773123 -2.4024415 -1.0914308 0.16088219
0003e0 2f cb b2 3f e1 4d 11 40 b3 fd 24 40 d5 7f 3d 40
       1.3968257 2.2703784 2.5779846 2.9609272
0003f0 a1 c2 17 40 3a 2c c8 3f 3c 88 42 3f 77 0f 63 bd
       2.3712542 1.5638497 0.7598913 -0.05543467
