wav_resampled16kHz/train/mfcc_delta/Wyn_FlutePlayersRoscommonVol1_Tk6Tu3R1_TheMaidOnTheGreen.npy (npy, 234288 bytes, 1 tensors)

array (column-major) f4 [2927, 20]
12.804824 12.804824 12.804824 12.804824 12.804824 8.578585 5.1513333 1.5573928
-1.165131 -2.4704077 -3.2174327 -3.480594 -3.2178671 -2.5292552 -1.6383038 -1.3570004
-1.0540653 -1.3579781 -1.0471075 -0.50150514 -0.2834774 -0.4830218 -0.27718174 0.1633859
0.15816727 0.37743923 0.30269164 0.769507 0.6679413 0.4830883 0.0226607 0.13226114
0.031533178 -0.119739406 -0.14538765 -0.26832885 0.23895632 0.5338966 0.6528951 0.17423108
-0.4355858 -2.2877963 -3.4000838 -3.2601807 -2.6379569 -0.71397746 1.2554358 2.5819995
2.8891125 3.3669934 2.655893 1.5436019 0.7430651 -0.15077019 -0.038574982 -0.6484815
-1.7858975 -3.4966385 -3.5490298 -2.8069506 -0.9545297 -0.11915703 0.5490376 1.0421027
1.0070635 0.17297809 -0.83429134 -1.7945998 -2.3272789 -1.5324537 -1.3914608 -1.2084002
-0.7559766 0.40859526 1.5258863 2.8065019 3.3950727 3.572273 3.505887 3.3751378
2.6836238 1.6752248 0.6205255 0.41160506 0.2321181 -0.062670514 -1.3672346 -3.1173482
-5.461341 -6.6996927 -6.92628 -5.8618574 -4.0887537 -0.47967085 3.371942 5.7409077
6.827878 4.81839 2.6756144 0.047459286 -1.4169953 -2.9615705 -2.5449436 -1.8006616
-1.2260216 0.6225164 1.1792887 1.7195121 1.6539428 1.4668171 1.2089651 1.3090717
0.9545544 -0.49608052 -1.4570056 -2.4245818 -3.0086043 -2.9138806 -1.992319 -0.92723185
0.1727675 0.90360016 1.2625308 1.0331876 0.47282106 -0.3565413 -1.3343523 -1.7516979
-1.2346214 -0.7378071 -0.8233686 -0.40659878 0.0017354329 0.62542087 1.3423043 2.843152
3.5031786 3.8694103 3.8001094 3.237205 2.8467329 2.0472043 1.3035823 0.31047618
0.15532914 -0.06749738 -0.72023547 -1.5186136 -2.9386933 -4.2703214 -5.717819 -6.0278864
-4.535469 -1.8715115 0.4544389 2.5533526 4.346104 4.7030826 4.00046 1.6517484
-1.7712418 -4.654598 -4.7858663 -4.3397374 -2.337382 0.17290547 2.8358455 5.0521584
6.427813 5.820661 3.049516 1.0511858 -1.0115412 -1.4673905 -1.297933 -0.38328856
-0.25760677 -1.3968593 -3.7103724 -5.3834352 -5.440135 -4.283729 -1.3123368 1.7857068
4.850265 6.5641036 6.1353025 3.2788332 0.27648416 -1.9212271 -3.2937949 -2.550022
-1.6704082 -0.75877976 -0.07793617 0.60661036 1.0299938 1.3985566 1.5145148 1.5922799
1.979332 2.0281656 1.9449546 1.5812398 1.4580762 1.0666697 0.8326804 -0.32992402
-1.0139648 -1.4689076 -1.9336923 -1.8067985 -1.4169171 -0.81989557 -0.101997375 0.58336
0.50193304 0.35668004 0.048395284 0.12455101 0.1293466 0.23071009 0.22417742 0.1278141
-0.16514663 -0.48834828 -0.62572086 -0.80731505 -0.096269734 0.43965122 1.0182812 1.5153061
1.7597588 1.6396263 1.0763167 0.2659087 -0.417637 -0.9859581 -1.5262057 -2.7936347
-3.9592333 -4.7008185 -4.231723 -2.2623818 -0.24440308 1.8175062 3.2147202 4.309667
3.7844481 2.1929643 0.10692927 -2.3858652 -3.1864772 -2.9362423 -1.8970422 -0.6705099
00000000: 8fe0 4c41 8fe0 4c41 8fe0 4c41 8fe0 4c41
00000010: 8fe0 4c41 e241 0941 b9d7 a440 a658 c73f
00000020: 0323 95bf 291b 1ec0 6bea 4dc0 0dc2 5ec0
00000030: 89f1 4dc0 51df 21c0 f0b3 d1bf 30b2 adbf
00000040: 9deb 86bf 3ad2 adbf 9e07 86bf a462 00bf
00000050: f323 91be a24e f7be c4ea 8dbe a24e 273e
00000060: 9af6 213e b73f c13e 66fa 9a3e 69fe 443f
00000070: 33fe 2a3f 5a57 f73e efa2 b93c 776f 073e
00000080: ef28 013d ef39 f5bd 80e0 14be 6662 89be
00000090: f7b0 743e 73ad 083f 2224 273f a269 323e
000000a0: 1a05 dfbe 416b 12c0 f99a 59c0 cda6 50c0
000000b0: 49d4 28c0 3ac7 36bf 1fb2 a03f 7b3f 2540
000000c0: 38e7 3840 d27c 5740 27fa 2940 bf94 c53f
000000d0: 8439 3e3f 8063 1abe cd00 1ebd e202 26bf
000000e0: 4a98 e4bf edc8 5fc0 4e23 63c0 14a5 33c0
000000f0: 0f5c 74bf 9a08 f4bd ba8d 0c3f 9f63 853f
00000100: 75e7 803f 2b21 313e 1e94 55bf 72b5 e5bf
00000110: 23f2 14c0 7127 c4bf 631b b2bf dcac 9abf
00000120: af87 41bf 6633 d13e 3e50 c33f ba9d 3340
00000130: df48 5940 1fa0 6440 7460 6040 4202 5840
00000140: 7ec0 2b40 c46d d63f c2da 1e3f e6bd d23e
00000150: 5eb0 6d3e 6659 80bd 8b01 afbf a282 47c0
00000160: 4ec3 aec0 e263 d6c0 16a4 ddc0 5694 bbc0
00000170: 12d7 82c0 6b97 f5be e6cd 5740 84b5 b740
00000180: fa7d da40 4030 9a40 443d 2b40 ab64 423d
00000190: 1a60 b5bf 5f8a 3dc0 5be0 22c0 147c e6bf
000001a0: 47ee 9cbf 3c5d 1f3f eff2 963f f918 dc3f
000001b0: 66b4 d33f aac0 bb3f 5ebf 9a3f a98f a73f
000001c0: ad5d 743f 44fe fdbe 297f babf 592c 1bc0
000001d0: f98c 40c0 057d 3ac0 4f04 ffbf 115f 6dbf
000001e0: f7e9 303e 5752 673f 9c9a a13f 7e3f 843f
000001f0: 9a15 f23e 958c b6be 0ecc aabf a337 e0bf
00000200: 1308 9ebf ede0 3cbf 49c8 52bf b72d d0be
00000210: 7777 e33a 951b 203f a1d0 ab3f 34f6 3540
00000220: 1434 6040 6ba4 7740 fe34 7340 5e2e 4f40
00000230: df30 3640 6505 0340 c9db a63f bcf6 9e3e
00000240: 9a0e 1f3e 113c 8abd 5a61 38bf ee61 c2bf
00000250: 8d13 3cc0 79a6 88c0 60f8 b6c0 72e4 c0c0
00000260: 9022 91c0 b08d efbf 37ac e83e 216a 2340
00000270: 4913 8b40 a77f 9640 c503 8040 7e6c d33f
00000280: 0db8 e2bf 78f2 94c0 d125 99c0 21df 8ac0
00000290: ab97 15c0 220e 313e 7e7e 3540 48ab a140
000002a0: a5b0 cd40 db42 ba40 452b 4340 428d 863f
000002b0: 2f7a 81bf 74d3 bbbf ab22 a6bf 663e c4be
000002c0: 09e5 83be 49cc b2bf be76 6dc0 1a45 acc0
000002d0: 9615 aec0 4f14 89c0 a7fa a7bf 0a92 e43f
000002e0: 5f35 9b40 230d d240 6654 c440 67d8 5140
000002f0: 558f 8d3e c5ea f5bf 89cd 52c0 8f33 23c0
00000300: f0cf d5bf 643f 42bf 009d 9fbd d14a 1b3f
00000310: d6d6 833f e703 b33f 9fdb c13f d4cf cb3f
00000320: c05a fd3f 77cd 0140 46f4 f83f 1166 ca3f
00000330: 3ea2 ba3f a288 883f 8b2a 553f cdeb a8be
00000340: 99c9 81bf 2a05 bcbf 3b83 f7bf 2c45 e7bf
00000350: 8a5d b5bf ade4 51bf 00e4 d0bd 1557 153f
00000360: af7e 003f c49e b63e 223a 463d 9a14 ff3d
00000370: 6f73 043e 443f 6c3e c48e 653e b3e1 023e
00000380: 331c 29be c908 fabe 3e2f 20bf 33ac 4ebf
00000390: 1129 c5bd f719 e13e 0a57 823f 8df5 c13f
000003a0: c73f e13f 46df d13f bfc4 893f 2f25 883e
000003b0: 84d4 d5be c067 7cbf b55a c3bf e9ca 32c0
000003c0: 1464 7dc0 1b6d 96c0 466a 87c0 ddca 10c0
000003d0: cd44 7abe 0ba4 e83f fabd 4d40 cbe8 8940
000003e0: 6634 7240 8759 0c40 bcfd da3d 04b2 18c0
000003f0: 3eef 4bc0 65eb 3bc0 47d2 f2bf 89a6 2bbf
